result_per_scene/past results_highD_01/old code files/results_old/model_epoch_1.pt (torch, 825517 bytes, 34 tensors)

attn.query.weight f4 [19, 19]
000000 04 64 6a 3f 6b d4 9b be 89 df e3 3e 50 d7 90 be
       0.9155886 -0.304355 0.4450648 -0.2828927
000010 3f 3f 0c be 1c fc 46 3d d2 d7 56 3e 68 b7 8c bd
       -0.13696001 0.048580274 0.20980766 -0.068709195
000020 2c f2 d6 bd c9 d5 20 be 8e f6 c1 3d a6 d4 d8 be
       -0.10495409 -0.15706553 0.09470855 -0.42349738
000030 b4 50 da 3d 12 e5 8b 3d 64 a7 e7 3d 18 99 0b bf
       0.10659924 0.06830801 0.11311224 -0.5453048
000040 c0 cd bc 3d e5 92 65 be f4 b0 e4 be 07 1d 45 3f
       0.09218931 -0.22419317 -0.44666255 0.7699742
000050 37 9f bb bd 7d 9a 3f 3d 9f da 3c 3c bb ec 10 3e
       -0.09161227 0.04677819 0.011526733 0.14152806
000060 96 3e 25 bd f4 71 59 3f fa ca 6c bd 5e 07 3e be
       -0.04034289 0.84939504 -0.05781076 -0.18557498
000070 9b 0b 5a be c6 6e b8 3e a3 22 c8 be 23 04 66 3d
       -0.2129349 0.36022013 -0.39088926 0.05615629
000080 e0 39 26 bd 9c 8d 2c be 84 af 45 be 87 fe 72 3d
       -0.040582538 -0.16850895 -0.19305235 0.059324767
000090 ca 0d 2d 3e 0d a2 50 be 67 98 36 3f bf 2b 7d 3e
       0.16899791 -0.20374317 0.713263 0.24723719
0000a0 01 5e 0f 3f cd fa 98 3e 27 36 af 3d b4 39 15 be
       0.56002814 0.29878846 0.085552506 -0.14572793
0000b0 69 72 54 bf 89 ba 90 be 24 32 a8 be ed 0a ea bd
       -0.82987076 -0.28267315 -0.32850754 -0.11427865
0000c0 72 42 ac 3e 3a 06 34 bf b5 7c 54 bc 67 aa 0c 3f
       0.33644444 -0.70322 -0.012969186 0.54947513
0000d0 2f f8 4d 3e ca 1b 9f be a6 73 1c be 7d 6b f6 be
       0.20114206 -0.3107589 -0.15278491 -0.48128882
0000e0 74 bd 1e bd 9f bc 6f 3f f0 c1 85 be 3a ea 9d 3e
       -0.038754895 0.9364719 -0.26124525 0.30842763
0000f0 61 46 47 be 85 f1 ab bd 95 b3 67 be 7d da 4b 3e
       -0.19460441 -0.083956756 -0.22627099 0.19907565
000100 88 a7 a4 3d cd 15 84 bd ba 29 64 be 06 10 b9 3e
       0.080397666 -0.06449471 -0.22281542 0.36145037
000110 a7 45 6a be c0 d3 f3 bd 91 90 13 be 0d 45 d6 bd
       -0.22878133 -0.119056225 -0.14410616 -0.10462389
000120 2e 56 21 bf d6 7a 32 3e 01 d5 f2 3b d5 d1 87 be
       -0.63022125 0.1742967 0.007410646 -0.26527277
000130 21 94 12 bf b1 17 b4 be 73 79 37 be ee fe c6 be
       -0.57257277 -0.35174325 -0.17917423 -0.3886637
000140 9e c0 9f bd 1b 80 8b 3d 25 1c eb 3f 70 b8 9d 3e
       -0.07800411 0.068115436 1.8367964 0.30804777
000150 4d 9d 85 3e 9d c2 31 3f 20 f8 c2 3d 90 a2 9e 3e
       0.26096573 0.6943758 0.09519982 0.309834
000160 8e 8f 65 3e 69 f5 f6 be 79 87 b3 be 2e 14 a4 3e
       0.22418043 -0.48234108 -0.35064295 0.32046646
000170 42 f7 db 3d db 8b 02 3f 3b f0 e2 be 33 81 03 bf
       0.1074052 0.5099465 -0.44323906 -0.5136902
000180 94 50 8a be 62 a5 97 3e 4e 4c 9e 3c be 48 fd 3d
       -0.270146 0.29618365 0.019323494 0.1236739
000190 1b be e5 be 75 89 94 bd 2a 4a c3 3e a2 c2 c4 3e
       -0.448716 -0.0725278 0.3814252 0.38429743
0001a0 4c 2b 9c 3e 93 f7 0b 3e fe 92 ef 3e 4b ef ea 3d
       0.30501783 0.13668661 0.46791834 0.11471423
0001b0 78 9c a6 be 4f 63 1c be 2e 20 a4 3e 31 5f a7 3e
       -0.3254125 -0.15272258 0.320558 0.32689813
0001c0 7c 1c 85 bb 34 43 1e bd 56 ea c9 3e 3a 3e 03 bf
       -0.0040622335 -0.03863831 0.39436597 -0.51266825
0001d0 dc 12 3c 3a 09 f0 38 3e ef cc 7f be 45 b9 84 3d
       0.0007174441 0.18060316 -0.2498052 0.0648065
0001e0 e8 a9 22 3f 47 46 13 bd 86 2c a7 3d 4e ff 4f bd
       0.63540506 -0.035955694 0.08162789 -0.050780587
0001f0 6e 1a c2 3d 88 bb 8f be f2 4d 9f 3d d3 42 71 be
       0.09477697 -0.28072762 0.07778539 -0.23560648
000200 63 e7 c4 3d 24 be 2b bd d7 27 67 3d 14 cd e8 3e
       0.09614446 -0.04192938 0.05643448 0.45468962
000210 92 5f 70 3c a4 07 87 be 05 10 d7 be 3c 2a 87 bd
       0.014671223 -0.26373017 -0.4200441 -0.065998524
000220 69 b2 db bd e8 f3 45 3e 0f e8 63 3e 9a a1 ea 3e
       -0.107273884 0.19331324 0.22256492 0.45826417
000230 bf da 43 3e c6 6f a6 3e 15 98 e6 3e 7e 9b 3f 3e
       0.19126414 0.3250715 0.45037904 0.1871166
000240 d8 f9 f8 3e ba 97 97 3e a1 fc 84 be 43 78 f6 3d
       0.48628116 0.29607946 -0.2597399 0.12034657
000250 35 8d fa 3e 0a 2a 80 3e 13 8f 7b 3e 4f fa 57 be
       0.48935857 0.25032073 0.24566297 -0.21091579
000260 ce 33 73 be be f8 69 3e 39 fc 02 be 83 51 39 bd
       -0.2375023 0.22848794 -0.12791528 -0.04524375
000270 94 14 e3 bd 34 53 e9 3e 71 cd 44 3f 08 94 60 3e
       -0.11087909 0.4557129 0.7687598 0.2193147
000280 b0 f9 01 3e 0b 1b c3 3e e8 ba c2 3d ed 59 3e bd
       0.12692904 0.3810657 0.09508306 -0.04647248
000290 11 a6 7e be 01 13 00 bf f1 10 90 3d 8a 5c a7 3d
       -0.24868037 -0.50029 0.07034481 0.08171947
0002a0 a0 cd 41 3e 5e 01 94 3e d1 8e 92 bd 1e a1 22 bf
       0.18926096 0.28907293 -0.07156146 -0.63527095
0002b0 47 67 ea 3d 3c 20 46 be 42 e7 db 3d 5a c4 be 3d
       0.1144548 -0.19348234 0.10737468 0.09314795
0002c0 12 86 f3 bd f3 46 c6 be 85 8f e9 3d 59 fb f7 3b
       -0.11890806 -0.38726005 0.11404327 0.007567805
0002d0 df 5c ee bb 50 ff a4 be ba c9 e7 3e 9f c6 ba 3e
       -0.0072742547 -0.32226038 0.45271093 0.3647966
0002e0 4e 0d 0d bd 06 ac 55 bd 50 e3 b9 3e d7 8a a4 bb
       -0.034436516 -0.052166007 0.36306238 -0.005021434
0002f0 7e 66 8d be b4 98 5b 3b 7b da 1b 3f 2a 9b 4e 3d
       -0.27617258 0.0033507766 0.6088025 0.050440945
000300 c2 db c4 3c 78 d4 1d 3d 31 d0 60 be aa 0f 83 bd
       0.02403057 0.038532704 -0.21954419 -0.06399472
000310 4e ee 6c 3f 69 ca 66 be c2 6b 40 3e 09 8e 0a be
       0.92551124 -0.22538151 0.18791106 -0.13530745
000320 c8 05 53 be 23 5e fb be fa 67 97 3c 15 03 99 3c
       -0.20607674 -0.49095258 0.018482197 0.018678227
000330 d5 cf f7 bd ed 64 9b be 1f 00 01 be 57 25 7b be
       -0.12100188 -0.30350438 -0.12597702 -0.24525963
000340 92 a5 8a bb 1d f6 11 3d 29 2f e4 bd 54 b9 66 3e
       -0.0042311633 0.035635103 -0.111418076 0.22531635
000350 03 09 84 be 40 25 ca 3e 7a bd db 3e 42 68 bf 3f
       -0.25788125 0.39481544 0.42917997 1.4953692
000360 60 6d 5a 3c c9 0b ed bd 8c a9 a1 3d be 0b 20 be
       0.013331741 -0.115745135 0.078936666 -0.1562948
000370 d7 ee fe bd bc 0d cc bd 44 af 8d be 5d e3 13 be
       -0.12447899 -0.09963557 -0.2767278 -0.14442201
000380 0e b5 11 3e 9a 70 1e 3e d3 66 0a bc 41 d7 09 be
       0.14229223 0.15472642 -0.008447367 -0.13461019
000390 e4 c2 91 bf d7 81 4d 3e 88 ca 87 bb ce 93 b9 3e
       -1.1387601 0.20069061 -0.0041440167 0.3624558
0003a0 f8 03 d1 bd 6c f4 cb bc b3 93 7b 3f 41 d0 1f be
       -0.10205835 -0.024896823 0.98272246 -0.15606786
0003b0 92 d4 9e 3e a4 e0 cc be 41 9b 10 bf 8a e4 c9 3d
       0.31021553 -0.40015137 -0.564869 0.098580435
0003c0 47 73 1b 3d 04 df a0 be a5 d3 1c 3e f2 f7 08 3f
       0.037951734 -0.31420147 0.15315111 0.53503335
0003d0 80 9d 74 be 71 46 06 3e 88 b9 e6 bd ac c2 63 bf
       -0.23888206 0.13112809 -0.11265856 -0.8896892
0003e0 73 9c cf 3d 75 9e 7b 3e 51 09 9b 3e 34 0d 5c 3e
       0.10137262 0.24572165 0.30280545 0.21489412
0003f0 f3 69 21 bf fc fe fd be 23 2c 98 be 0b 12 24 3d
       -0.6305229 -0.496086 -0.29721174 0.04005627

attn.query.bias f4 [19]
000000 e6 96 30 3f 78 00 82 3f 28 78 3a 3f 5b 16 11 3f
       0.6898025 1.0156393 0.72839594 0.56674737
000010 97 62 53 be c7 8b d7 bf 80 2b 46 3f 1f ee d3 bf
       -0.20643078 -1.6839532 0.77410126 -1.6557044
000020 86 f8 bf 3e 5b a2 87 bf 37 93 a3 3f 4c a0 4c 3f
       0.37494296 -1.0596422 1.2779301 0.79932094
000030 e7 24 af 3e 7b 4b 68 be 5f ca d6 be 91 0d 81 bf
       0.34207842 -0.22685044 -0.41951272 -1.0082265
000040 64 86 0b 3f ab 84 0b bf 68 2d a2 3f
       0.5450194 -0.5449931 1.2670107

attn.key.weight f4 [19, 19]
000000 05 dc 48 3f 96 46 fb be fd 99 b7 3e 9a 5b e7 3c
       0.78460723 -0.4907729 0.3585967 0.028241921
000010 39 49 4b 3d 2a 98 b7 3e b3 c4 45 3e 7f c9 7d be
       0.049630377 0.3585828 0.19313316 -0.24783896
000020 e2 ec ab 3e 85 b5 34 bf 4a d3 53 3d 33 52 2a bf
       0.33579165 -0.70589477 0.051715173 -0.66531676
000030 cd 38 e2 3e bd 25 02 bf 27 15 db 3c 2f 86 25 bf
       0.4418396 -0.50838834 0.026743485 -0.6465787
000040 fd 7c 0c 3e 12 ce e4 be 5b 53 b9 3e 86 a5 b5 3e
       0.13719554 -0.4468847 0.36196408 0.35477847
000050 1a a1 bd be c1 75 29 3f be f5 6e be 0d a9 25 3e
       -0.37036973 0.66195303 -0.2333593 0.16177769
000060 7e c7 16 3f 94 26 53 3f 27 f0 b6 be a6 d6 49 3d
       0.5889815 0.8248074 -0.35730097 0.04927697
000070 40 8b 2f bf f9 64 da 3d 00 f2 2a bf 5d 05 88 3e
       -0.68571854 0.1066379 -0.6677551 0.26566592
000080 1f 1b 35 bf 70 7e 62 3e 35 33 9a be 65 ee 25 be
       -0.7074451 0.22118545 -0.30117193 -0.16204222
000090 4c df 43 bf cc 6e 3d 3e fa 10 3c 3e 80 de 44 bf
       -0.765126 0.18499297 0.18365851 -0.7690201
0000a0 87 79 be 3e 08 74 23 3e 33 75 10 3e 16 a9 84 3c
       0.37202093 0.15962231 0.14107208 0.016193908
0000b0 03 22 80 be 4e 75 19 bf 0c 12 e7 3e be 8d ec be
       -0.2502595 -0.5994462 0.45130956 -0.4620189
0000c0 a9 28 26 be a9 a1 30 be 41 0a c6 3e 90 c7 48 bf
       -0.16226448 -0.17249168 0.38679698 -0.7842951
0000d0 6e b1 72 bc 79 a4 03 bf cd da c8 be 06 cc b1 be
       -0.01481281 -0.5142284 -0.39229432 -0.3472597
0000e0 72 1b f7 3e 53 bd 49 3f 43 42 9f be dc 99 d3 3d
       0.48263127 0.7880451 -0.3110524 0.10332081
0000f0 4a 1c 0a be f1 e1 eb 3c 30 98 02 3e 58 57 00 3f
       -0.13487354 0.02879426 0.12753367 0.50133276
000100 7c ec 97 be 5d 73 52 3d e7 a8 8e be 84 c9 b7 bd
       -0.2967261 0.05137955 -0.27863237 -0.08973983
000110 ec dd 0d bf bf fd 2f 3f 71 1d de be 72 81 96 3e
       -0.5541675 0.6874656 -0.43381837 0.29395634
000120 66 d3 8d bf 5c e5 a0 3c 72 61 34 bf 8b 3e 29 3e
       -1.1080139 0.019640617 -0.7046119 0.16527764
000130 b6 89 9b 3b 6f e3 3e 3f f5 37 b0 be c4 6f 9c be
       0.004746641 0.74565786 -0.34417692 -0.3055402
000140 89 2c 6c be 26 d9 51 3e 33 7a 53 3f a2 ef 92 3e
       -0.23063864 0.20492992 0.82608336 0.2869845
000150 0d 2f eb be 44 40 43 3f ad 20 c6 3d cb 1d fb bd
       -0.45934334 0.76269937 0.09674201 -0.12261542
000160 e1 e9 c8 be 0c 16 d4 3e f7 7a 76 3e 90 0f ae 3e
       -0.39240935 0.4142307 0.24070345 0.33996248
000170 af 0c c0 3e 1f 5d 27 3f 37 25 09 be 64 65 fd bc
       0.37509677 0.65376467 -0.13393103 -0.030932136
000180 1e 11 48 3f a3 f9 bc be 36 7c 44 bd 03 60 1f be
       0.7815112 -0.36909208 -0.04797002 -0.1556397
000190 a0 f2 5a bf ad f4 9e be 5d 51 89 3e 5a a8 e2 be
       -0.85526466 -0.31046048 0.26819888 -0.44269067
0001a0 9e a1 fd 3e a5 df da be 10 f1 9c 3d ac 15 1b be
       0.49537367 -0.42748752 0.076631665 -0.15144986
0001b0 ff 29 43 3f 1f f4 0c be ef 67 c2 3d f7 f6 2e 3e
       0.76235956 -0.13765 0.0949248 0.17086397
0001c0 0c 57 28 3f 64 61 8b be b4 dc 2b bb d7 44 89 be
       0.65757823 -0.2722274 -0.0026224079 -0.26810333
0001d0 eb 4f 21 3e 1e 3c 9b be ec 9e 14 3e d8 29 db 3e
       0.15753143 -0.30319303 0.14513749 0.42805362
0001e0 e1 e4 3b 3f 13 17 51 be 71 4c 37 3d 34 3b 92 3e
       0.73396116 -0.20418958 0.044750635 0.28560793
0001f0 33 d9 4a 3e fe a8 01 bf 5b 7e 65 3e b1 b0 d3 3e
       0.19809417 -0.50648487 0.22411482 0.41345742
000200 d5 27 d9 3c 59 48 e3 3a 0f 00 54 3e 8c 36 18 3d
       0.026508251 0.0017340287 0.20703147 0.037161395
000210 85 2a da bd da 4b 00 3f 93 0c 84 3e 49 40 ac be
       -0.10652641 0.5011574 0.25790843 -0.33642796
000220 dc 1c ce bd 02 fc 84 3c d1 3c dd be 64 56 a3 be
       -0.10064098 0.016233448 -0.43210462 -0.31901848
000230 ad 94 66 3e cd 89 d5 be a6 97 33 3f e9 83 0a be
       0.22517653 -0.41706696 0.7015327 -0.13526882
000240 0a 12 90 bd 61 d6 c8 be 8f d0 44 3f 01 82 f8 bd
       -0.07034691 -0.39226058 0.76880735 -0.12134171
000250 cd 2b 94 3d 94 8b 0f be 99 dd 34 3f 6d a0 65 bd
       0.07234917 -0.14018089 0.7065063 -0.056061197
000260 b5 9c f9 bd 8e 0a c9 3e 21 4a ed be bf 78 eb bd
       -0.121880926 0.39265865 -0.46345618 -0.1149764
000270 cf b8 34 be ea 20 a6 3e 62 40 b4 3e 8f 1b 91 bd
       -0.17648624 0.32446986 0.3520537 -0.070853345
000280 66 5f e9 be c8 09 21 3f ce dd f7 ba c3 ab 7d 3e
       -0.45580596 0.6290555 -0.0018910707 0.24772553
000290 23 fc e3 bd e5 19 27 3f 95 e8 4e bd 04 51 2a 3e
       -0.11132076 0.65273887 -0.050514776 0.16632468
0002a0 43 da a1 3e 9e b3 1d 3f b4 02 1c be 16 4e 54 be
       0.31611833 0.616022 -0.15235406 -0.20732912
0002b0 95 c2 a6 3e 05 a3 8e be 9f 71 61 3e ce 7f ec bd
       0.3257033 -0.2785875 0.22016 -0.11547814
0002c0 08 a9 0b bf 88 7e af be 1a 1a f9 3e 1b 84 c0 3d
       -0.54554796 -0.34276223 0.48652726 0.09400197
0002d0 19 39 2f b9 b2 7a 23 be 29 32 70 3e c8 15 6a bd
       -0.00016710571 -0.15964773 0.23456635 -0.05714968
0002e0 82 fb 07 3f 2d 4e 8e be e0 ff f4 3e a3 9d 91 3e
       0.53118145 -0.27794018 0.47851467 0.2844058
0002f0 97 8b 14 3f f8 28 c2 bd 29 dd a5 3e 67 ce b1 be
       0.580255 -0.094804704 0.32395294 -0.34727785
000300 96 f4 c1 3e 31 cb ae bd f5 1d c5 3e b8 07 2a 3f
       0.37881917 -0.085348494 0.38499418 0.6641803
000310 84 c3 5c 3f 30 4e 81 be d8 47 e7 3e 05 45 b6 be
       0.86235833 -0.25254965 0.45172 -0.35599533
000320 bd 90 8d 3d 1b 51 d6 be c2 d1 18 3f 6e 7d 88 be
       0.06912372 -0.41858754 0.59695065 -0.26658195
000330 e2 6b 25 3d 5b 16 ac be 19 6b 3e be df 3c 8b be
       0.04038609 -0.33610806 -0.18595542 -0.27194878
000340 a3 48 4f bd 8e 53 53 be ef 85 d3 3e 4c 18 66 3e
       -0.05060638 -0.20637342 0.4131312 0.22470206
000350 58 0b df be dd a9 07 be 93 81 2a 3f 63 91 63 3f
       -0.43563342 -0.13248391 0.66603965 0.8889372
000360 32 a7 8b be 21 e6 ba be 67 f6 85 3e bf 3e 21 3e
       -0.27275997 -0.365037 0.26164553 0.15746592
000370 35 ba 27 be 0e 95 55 3d 15 07 ae 3c 06 68 38 be
       -0.16379626 0.052144103 0.021243611 -0.18008432
000380 fb d1 ad 3d 95 ba a7 3e db e4 e1 3c 87 1e 06 3e
       0.08487316 0.32759538 0.027574947 0.13097583
000390 91 60 60 bf 77 ef 2e 3f f4 0e 70 be 6a 43 c5 3d
       -0.8764735 0.68334144 -0.23443204 0.09631999
0003a0 55 f4 b7 be 77 4a ae 3e b0 0c 33 3f 4c 39 ee bc
       -0.35928598 0.34041187 0.69941235 -0.029080056
0003b0 b1 99 78 3d 65 2d d7 3e 82 3f af bd 76 5b 00 3f
       0.060693447 0.4202682 -0.08557035 0.5013956
0003c0 e6 b3 cc be 81 08 fa 3e 6a 9c 31 be 71 f7 7f 3f
       -0.39981002 0.48834613 -0.17344823 0.9998694
0003d0 c7 f7 89 3e dc 5e 21 3f 6f ca 0d be 23 b4 f6 be
       0.26946852 0.6303537 -0.13846754 -0.48184308
0003e0 00 b0 5e 3b 56 60 76 bd 2a b5 6b 3c 17 81 fd bd
       0.0033979416 -0.060150467 0.014386455 -0.123781376
0003f0 a1 3e 76 be 66 0e fd ba 55 e7 11 be 7e 80 83 3a
       -0.24047329 -0.0019306659 -0.14248402 0.00100328

attn.key.bias f4 [19]
000000 fd 36 ea 3e 8d ef bf 3e 94 e9 f0 3e 84 be a1 3c
       0.45745078 0.3748745 0.47053206 0.019744165
000010 5d b9 1c bf 76 a9 40 bf 4e 5b fa be 7f a9 2d bf
       -0.6122034 -0.75258577 -0.48897785 -0.67836756
000020 23 48 e0 be 91 43 8d be c1 57 bc 3e 1a 4d f2 be
       -0.43805036 -0.27590612 0.367857 -0.4732445
000030 e8 54 28 bf 7a 0e 8e bd b9 43 8e 3e 29 f5 e8 be
       -0.65754557 -0.06936355 0.27786043 -0.45499542
000040 45 03 2f 3f 01 43 06 bf 12 2b 5e 3e
       0.68364364 -0.5244599 0.21696118

attn.value.weight f4 [19, 19]
000000 e5 50 29 3f 84 4f 36 3d 49 18 1b bc 43 d1 72 3c
       0.6613906 0.044509426 -0.009466239 0.0148204
000010 52 a4 a2 3b 1f 7d a2 bb 00 b2 ea bc 74 ed 7c 3c
       0.004963436 -0.0049587633 -0.02864933 0.015437473
000020 97 f8 04 bc 61 f4 9c ba 9d 93 b3 bb 49 27 ad 3b
       -0.008115909 -0.0011974686 -0.0054802434 0.005284224
000030 54 8a 8f bc d3 5b 23 bc 11 0d f8 3b d8 a8 d3 b9
       -0.017522015 -0.009970623 0.007569917 -0.00040370855
000040 13 53 a0 3b 0b 68 6e bb bf 14 54 bc 28 08 06 be
       0.0048927157 -0.0036377932 -0.012944399 -0.13089049
000050 44 59 bc 3e ae fa 3e bd 07 a9 ee 3c e9 fc 92 bb
       0.36786854 -0.046625786 0.029133333 -0.0044857156
000060 fb 2f 4b bd 99 05 ac bd 90 96 83 bb a7 a4 b1 bc
       -0.049606305 -0.08399505 -0.004015751 -0.021684958
000070 81 7a c7 3c 48 53 5f 3b 15 02 c2 bc 9f 77 12 bd
       0.024350407 0.003407674 -0.023682633 -0.03575861
000080 18 91 3a bd df af 4c 3d 21 c3 fe 3b d1 50 01 3c
       -0.04554853 0.04997241 0.007774726 0.007892803
000090 cb 2c 1e bd 2e 58 ac ba b9 31 02 3d 35 b2 0b 3d
       -0.038616937 -0.0013148838 0.0317857 0.0341055
0000a0 f4 55 85 bf e8 f5 39 bd c4 c4 f4 3c b7 f7 9c bd
       -1.0416856 -0.04540053 0.029878981 -0.07664435
0000b0 c6 65 f6 3b 10 77 0e 3d 22 b2 ce 3c 9f 92 56 bc
       0.0075194566 0.034781516 0.025231425 -0.013096481
0000c0 14 0e f2 bc 42 85 35 bc 56 87 36 bd ca f4 27 bc
       -0.029547729 -0.011079134 -0.04456266 -0.010251233
0000d0 c6 58 3e 3d 21 e9 e3 3c 3d d2 fa ba d5 d9 c9 3a
       0.04647138 0.027821125 -0.0019136142 0.0015400002
0000e0 2d 02 5d bd fb b9 44 3d c8 28 55 3c d0 a0 a7 bb
       -0.053957153 0.048028927 0.013010211 -0.005115606
0000f0 7c 0e 58 bf f1 51 cf bb 8a 8c ef bc 54 a7 20 3e
       -0.843971 -0.006326907 -0.029241819 0.1568883
000100 5e 27 0e 3d ea d7 0c 3d ce 16 32 3c 7e d0 97 3d
       0.034705512 0.0343856 0.010869695 0.074128136
000110 8f b8 31 3d 18 8f 9f bb 11 60 e2 bc e9 03 35 3d
       0.0433889 -0.004869353 -0.027633699 0.044193182
000120 9a a9 bc bc 77 2e 0a bb 4e 96 4d ba 4d f5 b0 3d
       -0.023030091 -0.0021084824 -0.00078425265 0.086405374
000130 52 42 33 bd 0a fc 07 bd 20 3d 7c bd fa 57 fb 3c
       -0.04376442 -0.033199348 -0.06158173 0.030681599
000140 43 c4 7a bf f6 1d ab bb 01 17 af bd b8 dc 4c 3b
       -0.9795572 -0.0052220775 -0.085493095 0.0031259488
000150 b9 d6 a6 bb bd 13 99 3d bc af a5 3c d4 6a 89 bc
       -0.005091515 0.07474468 0.020225398 -0.016774572
000160 8b 67 8a bc 5f d3 51 3c 5c fd b4 3d cb 3a 18 bd
       -0.016895076 0.012806742 0.08837387 -0.037165444
000170 dc a5 de 3c 8b 08 26 bd de 6c 0d bd 16 06 f8 bb
       0.027178697 -0.04053549 -0.034527652 -0.007569085
000180 7b fb ce 3a 2f 22 0d bc ea 4b 56 be fb df f6 bc
       0.00157915 -0.008614107 -0.20927396 -0.0301361
000190 bc fe 60 bf 3b ba 13 be 17 31 98 3c c2 89 27 3c
       -0.87888694 -0.1442651 0.018578095 0.010225715
0001a0 9d 96 1c 3d 91 1e ab bd e4 42 ad bc e5 33 13 3d
       0.038229574 -0.083554395 -0.02115006 0.035938162
0001b0 4b f0 8f 3d 5d 48 87 bd 6f 69 ec bc 15 05 be 3c
       0.07028254 -0.06605599 -0.028858868 0.023195783
0001c0 02 3a 5f 3b 4e 60 bd bd 6a c1 87 bd ac de 87 bb
       0.0034061675 -0.09246884 -0.06628688 -0.0041464176
0001d0 53 29 0b 3d 10 4b b7 bc 48 bf 2a bc e5 42 e5 ba
       0.033974957 -0.02237466 -0.010421582 -0.001749125
0001e0 ec 1c 84 bf 43 e5 c3 ba d4 0b 3f bd 3f 6e b8 3d
       -1.0321326 -0.0014945645 -0.04664214 0.09005403
0001f0 cc 75 2d 3d ef ab 4c bb bb 07 e7 3c 46 75 62 bd
       0.042348668 -0.003123041 0.028201928 -0.055287622
000200 65 7b c6 3d ae 28 1a bc fa e8 b0 3d 94 20 88 bd
       0.096915044 -0.009409113 0.08638187 -0.06646839
000210 25 6f 65 bc 8a 2e 85 3b 6c e7 cc 3c 22 1d 19 bd
       -0.01400355 0.004064386 0.025012694 -0.0373813
000220 25 f1 13 3d 92 63 67 bd 35 2a 41 bd b4 8e 05 3d
       0.036118645 -0.056491442 -0.047159392 0.032606795
000230 2a 12 80 bf d0 29 06 bd b8 22 44 3d dc d6 35 3b
       -1.0005543 -0.03275472 0.047884673 0.0027746474
000240 6e 5e 0f bd e7 63 87 3d 1a 11 90 3d 59 d6 4c bc
       -0.035002165 0.06610852 0.07034512 -0.012502276
000250 61 56 93 bc b0 ca 04 3c 48 27 10 3d 47 61 07 b9
       -0.017985525 0.008104965 0.03519371 -0.00012910842
000260 5b 48 55 bd 78 29 86 3e 50 97 69 3e 2f d6 85 be
       -0.052070957 0.26203513 0.22811627 -0.26139972
000270 74 65 d8 ba 1e 08 89 3e 70 c0 c5 3e 29 6e 8a bd
       -0.0016509728 0.26764005 0.3862338 -0.06759293
000280 e0 57 3c bf 15 6b 22 be 7e 02 5a 3b c7 cf 16 3d
       -0.73571587 -0.15861161 0.0033265646 0.036819246
000290 88 85 25 bd 6e d4 a3 3d 95 1a 95 bd b2 c8 26 bd
       -0.04041055 0.07999502 -0.07280461 -0.04071874
0002a0 8e 4f 5b 3c 4d ac a1 3d 8a 94 5c 3e 9f 3f d9 3c
       0.0133856665 0.07894192 0.21541038 0.026519595
0002b0 22 dd 2c 3d 86 3c 4b 3d 0c 51 38 bd 13 f2 f7 bb
       0.042203076 0.049618267 -0.044999167 -0.0075666993
0002c0 95 f6 8d bc 44 e4 87 3d 73 c4 a0 3c e4 0d 48 ba
       -0.017329494 0.06635335 0.019624924 -0.00076314644
0002d0 18 5e 79 bf 13 c8 e3 bc 4e 71 33 3c 7d 3f a7 bc
       -0.974092 -0.027805364 0.010952307 -0.020416016
0002e0 cd 20 00 bd e5 cb 55 bd 11 a0 9f 3c 7d f0 bf 3c
       -0.03128128 -0.052196402 0.019485505 0.023430103
0002f0 28 52 c5 3b 7e 85 18 3c 69 93 47 bb 2b 74 06 bc
       0.0060217567 0.009309171 -0.0030452854 -0.008206408
000300 d0 24 a9 3d ce be 3c be 23 2a 56 3b 3b c7 aa bd
       0.082589746 -0.18432161 0.0032678924 -0.083387814
000310 5a 9b c8 bb 8c f7 17 3d 70 a7 82 bd dc 3c 58 3b
       -0.006122035 0.037101313 -0.063795924 0.003299526
000320 ab e1 7d bf 80 1e 37 bd e5 b3 e8 bc 85 f8 ea bd
       -0.99172467 -0.04470682 -0.028406093 -0.114731826
000330 19 6b 0e 3d ba 39 8f 3b 50 60 38 3d 3b 2d 1b be
       0.034770105 0.004370895 0.045013726 -0.15153973
000340 dc ce 2b bd ff ac 1a bd 96 07 3c bd e2 d4 8f bc
       -0.041945323 -0.03776264 -0.045905672 -0.017557565
000350 bf 8a b1 3d 77 f6 df 3b fd 5b 83 bc 68 b0 fe bd
       0.08669042 0.006834801 -0.016035074 -0.124359906
000360 8f ea 8f 3b 3d 94 9f bc e1 91 a9 3d 7f 3d 94 3c
       0.0043919752 -0.019479865 0.08279777 0.01809573
000370 94 3a 84 bf 55 26 97 3c 7f 62 6d 3d f5 5b 11 bc
       -1.0330377 0.018450895 0.05795526 -0.008872022
000380 2e 4b a1 bc 62 bf 3f bb 80 98 96 3b ab c2 44 bc
       -0.019689169 -0.002925836 0.004595816 -0.012009303
000390 5a 72 ee bc 57 51 d7 3e 37 bf 9d 3e 2c 6f 74 be
       -0.029107261 0.42054245 0.30809948 -0.23870534
0003a0 d0 df 85 3d 30 e4 f8 3d 11 a1 f4 3e 60 44 f7 bc
       0.065368295 0.12152898 0.47779134 -0.03018397
0003b0 a3 c9 79 bd fb 09 c5 bd 4a ca a3 bd 18 82 79 3d
       -0.06098331 -0.09621044 -0.07997568 0.060915083
0003c0 08 ce 17 bf 71 b0 6a 3e 35 b6 a7 be 02 1e d3 bc
       -0.59298754 0.2291887 -0.327562 -0.025771145
0003d0 69 f3 0d bd 53 8c 19 3e 90 f8 b3 bd 3b e1 19 3d
       -0.034655962 0.14994936 -0.08787644 0.037568312
0003e0 7a c8 94 3d 07 57 d8 3c 0e ac db bd b0 3f 31 3c
       0.072648 0.026408685 -0.10726176 0.010818407
0003f0 d7 40 02 bc 6b b3 fd 3c f8 66 5d 3c f8 6e 66 3b
       -0.007950029 0.030969342 0.013513319 0.0035161357

attn.value.bias f4 [19]
000000 ea d2 dd be 03 69 ca bf df 81 a8 bd eb 08 3a bc
       -0.43324977 -1.5813297 -0.08227896 -0.011354665
000010 94 8e d9 3c cf 5e 7d bc b3 ac 18 3c 3e fc ee 3c
       0.026557244 -0.015464499 0.009318518 0.029173013
000020 f3 34 42 3e 76 a7 14 bd 43 d1 19 bd 27 1f 2c 3c
       0.18965511 -0.036292516 -0.037553083 0.010505474
000030 f9 43 12 bf f1 5f 6b 39 dd 2c 33 3c d2 fd 16 3d
       -0.5713497 0.00022447087 0.010935989 0.036863156
000040 ce cc 89 3c 2f 14 b5 3a 93 e0 97 3c
       0.016821291 0.0013815219 0.018539703

transformer.encoder.weight f4 [128, 19]
000000 6a 3a 33 3b f2 c9 e0 3b bb 8f 44 bd c3 9d da bc
       0.002734805 0.0068600113 -0.047988635 -0.026686555
000010 10 e8 31 bc 8b 2f 95 bd 7b 95 a0 3d d9 61 79 bd
       -0.010858551 -0.07284459 0.07841011 -0.06088433
000020 c9 f4 85 3d 59 fb d7 3d 37 f2 26 3d 43 6e 0c 3c
       0.0654083 0.10545988 0.040758338 0.00857121
000030 85 02 87 bc 83 a9 0d bd a2 48 5f 3d ef c7 00 be
       -0.016480694 -0.034585487 0.054512627 -0.12576269
000040 53 ef ca 3d 98 56 14 3d bd 45 59 3d a7 48 17 3c
       0.09908929 0.036215395 0.053045023 0.00923363
000050 6a 84 02 3d ab 2b 2f bd 34 cb 29 bd 6f dc cb bb
       0.03186456 -0.042766254 -0.041453555 -0.006221346
000060 10 d1 90 bd 39 fb 72 bd be 89 0d 3e 45 91 90 bd
       -0.070711255 -0.059321616 0.13822076 -0.07058958
000070 13 b6 fc bd 45 56 15 bd cb 10 2a be 1a 14 b5 3c
       -0.123394154 -0.036459226 -0.16607969 0.022104312
000080 ab b7 c2 bd 06 63 76 bc f0 ee 74 3d cc c6 1d bd
       -0.09507688 -0.015038257 0.05979818 -0.038519666
000090 c0 bc 4e be 00 fc 7b bd de 94 2c bc 63 8e 97 bc
       -0.2018919 -0.061519623 -0.01053354 -0.018500512
0000a0 50 73 5c bb e1 dc d4 bc c2 58 c3 bd 12 82 b9 3b
       -0.0033638068 -0.02598423 -0.095384136 0.0056612575
0000b0 bf 1d 5b 3d 17 7c f1 ba 85 71 ad bd ce 3e 9e 3c
       0.053495165 -0.0018423822 -0.08468918 0.019317057
0000c0 6a 86 58 bc 14 05 82 3d db ea e8 bc 28 34 35 3e
       -0.013215641 0.06348625 -0.0284323 0.17695677
0000d0 73 e4 26 be b0 d2 0f bc 7f 36 bb 3c 90 27 03 be
       -0.16298084 -0.008778259 0.022853134 -0.1280806
0000e0 38 ec ff bd a8 6f f8 3a 7a 0c 92 3c 8e 52 c4 bd
       -0.12496227 0.0018954175 0.017828215 -0.095860586
0000f0 c2 9f 44 3d 4b d8 9f 3d 2e 34 93 bd 46 e8 39 3d
       0.04800392 0.078049265 -0.07187687 0.04538753
000100 e5 8a bb bc e6 43 90 bd 68 20 9f 3d 2b b1 0b be
       -0.022893379 -0.070442006 0.07769853 -0.13641803
000110 a8 a3 63 3d 8f 1f 00 3d 74 e2 d5 3d c0 6e e5 3c
       0.055575997 0.031280097 0.10443583 0.028006911
000120 fa 8c 8b 3d e6 9d cd bc 93 1a a1 bc 91 ae cd 3d
       0.068139985 -0.025099706 -0.019665992 0.100430615
000130 e2 77 2f 3c d5 82 2b 3c 42 ae fc bc 76 b9 0d 3d
       0.010709735 0.0104682045 -0.030844811 0.034600697
000140 0e e0 b7 bc 63 2f 6d bd d9 22 17 3e 3f 17 bf bd
       -0.022445705 -0.05790652 0.14759387 -0.09330606
000150 cc e5 cd bd 73 6b a7 3e 6b 6f 97 bd d7 0b 90 3e
       -0.10053596 0.32699165 -0.07394298 0.28134033
000160 8a 85 3d 3d de 9a c2 3d ad 81 d4 bd 61 e6 80 ba
       0.04626993 0.09502195 -0.10376296 -0.0009834283
000170 b0 36 80 bd 20 49 87 39 c8 c8 90 3d 4f b0 12 bf
       -0.06260431 0.0002580369 0.07069546 -0.57300276
000180 28 8c 60 be f3 3a 2d bd 2e 45 26 be 9e 48 13 bd
       -0.21928465 -0.042292546 -0.16237327 -0.035957925
000190 46 00 f2 3c 74 d3 d1 bc e6 15 0f bd dd c2 b4 bd
       0.029541146 -0.025613524 -0.034932993 -0.0882623
0001a0 28 32 0e be e0 11 10 be 4b c7 10 3e aa 1c 9d bd
       -0.1388632 -0.14069319 0.14138524 -0.07671483
0001b0 16 65 ce bd cd 58 8b 3d 81 68 29 be f6 3d fa 3d
       -0.10077874 0.06804047 -0.16543771 0.12218849
0001c0 bd 66 96 3c 7b ae ed bd 53 e1 b4 3b 14 85 d2 38
       0.018359536 -0.11605545 0.005520025 0.00010038368
0001d0 ba 7b 6e 3d 98 24 0a bd 33 2e d2 3c 2e 09 18 3d
       0.058223464 -0.033726305 0.025656795 0.03711813
0001e0 a1 86 1a 3d 85 14 22 be 98 e7 f0 3c 6f 4d 53 3e
       0.03772605 -0.1582814 0.029407308 0.20635007
0001f0 0a 4c ec bd 41 6c b7 3d b8 0a ae 3c 19 0b b6 3d
       -0.11537941 0.08956195 0.021245345 0.088888355
000200 d1 e6 96 3d 83 bc 12 3d 22 88 d1 3d 40 cb 1d be
       0.073682435 0.03582431 0.102310434 -0.15409565
000210 a1 8c 73 bd 8f 46 79 bc e5 b3 83 bc 92 b4 62 3c
       -0.059460286 -0.015214576 -0.016076991 0.013836997
000220 26 3f e9 3c 4d 99 65 3d f8 cc 28 bd 1e 38 10 3e
       0.028472494 0.056054402 -0.0412111 0.14083907
000230 1a 2b 9e 3d 64 4d da bd a1 c7 be bc 60 ee 10 3d
       0.07723065 -0.10659292 -0.02328855 0.035383582
000240 8c 2a 41 3d dd 0b f5 3d 28 b5 c6 3d 63 d8 1a be
       0.047159716 0.11965153 0.097025216 -0.15121607
000250 8e 6c e1 3d ff e3 96 bc 69 63 d4 3d 73 79 5f 3d
       0.11007033 -0.018419264 0.103705235 0.054559182
000260 2d cf 79 3b 39 5e c1 bb a5 56 0a be 2b dc c6 3c
       0.003811787 -0.005901125 -0.13509615 0.024274906
000270 9a ad 2d 3b dc 60 eb bc a0 8d ff 3b 06 1e cb 3d
       0.002650118 -0.02873271 0.0077988654 0.09917836
000280 76 be 41 bd f5 39 67 3d d1 e2 57 bd e9 9d 86 bd
       -0.04730078 0.056451757 -0.052706543 -0.06573088
000290 a4 8f 79 3c d2 00 54 3e 9a c5 ef 3d a3 11 51 3e
       0.0152320005 0.20703438 0.117076114 0.20416884
0002a0 d0 10 b6 3b 00 ff 00 be 0a 84 31 bd db cf 2e ba
       0.0055562034 -0.12597275 -0.043338813 -0.0006668546
0002b0 39 93 14 3c db 77 c3 bd 59 49 a8 bd e4 44 18 bd
       0.009068304 -0.09544345 -0.08217115 -0.037175074
0002c0 45 06 d8 bc 89 01 3a 3d d4 34 8c 3c 47 54 fc bc
       -0.026370177 0.04541162 0.017115034 -0.030801905
0002d0 47 5d 45 bc 37 23 50 bd 2a 7d b2 3c 41 c6 83 3c
       -0.012046165 -0.050814833 0.021788199 0.016085746
0002e0 51 c8 00 3e 6c c1 0e 3e 3c b8 0a 3e f7 02 44 3c
       0.12576415 0.13940972 0.13546842 0.0119635975
0002f0 7d b1 e5 bd 65 8c 96 3d 70 52 0d 3f 86 a4 8b bd
       -0.11215494 0.07350997 0.55203915 -0.0681849
000300 17 55 9e bd e5 11 c3 3c 7a 14 27 3d 78 4a 1b be
       -0.07731073 0.023812244 0.040791012 -0.15165126
000310 97 d8 21 be 9d 62 74 3d d5 6b 16 3d 63 2e da bd
       -0.15805279 0.059664357 0.03672393 -0.10653379
000320 6a 06 57 3d 8e c5 ee 3d 7c b2 c7 bd 09 1d 90 bc
       0.05249635 0.11658774 -0.0975084 -0.01759197
000330 34 d1 5d be 54 02 0c 3e 73 e0 5f bd df 24 a7 3d
       -0.21661836 0.13672763 -0.05465741 0.081613295
000340 9e dd 31 3d 9b ba c2 3e 14 24 ec 3d 56 22 01 3e
       0.04342424 0.38032994 0.11530319 0.12610754
000350 8f bd 04 3e 12 e2 c9 3c fe c0 13 3e 92 8e 1d 3e
       0.12962936 0.024643932 0.1442909 0.15386418
000360 8a bf 45 3d 15 45 49 3d 6f a8 10 3e 23 ca 33 bc
       0.04827837 0.049138147 0.14126752 -0.010973486
000370 49 fb 30 bd 79 79 04 3e 47 25 77 bc da 85 5a 3e
       -0.043208394 0.12936963 -0.015084571 0.21340123
000380 2f 03 05 be 76 ca 30 bd db 0b 3a be 73 60 86 bd
       -0.12989496 -0.04316183 -0.18168585 -0.06561365
000390 4d c4 f8 3e db 07 c3 bd cc 47 9d bc 94 40 fd bd
       0.48587266 -0.09522983 -0.019199274 -0.12365833
0003a0 6b 1c 2a be 75 31 50 be 4d 49 cc bd 61 9d 5a bd
       -0.16612403 -0.20331366 -0.099749185 -0.053372744
0003b0 48 ee c0 bd f0 c5 41 bb 56 da 5d bd 0c ea 0d be
       -0.094204485 -0.0029567443 -0.0541633 -0.13858813
0003c0 1a 91 db bd e1 76 da bd 94 5f 81 3d 36 0b 0f 3d
       -0.10721035 -0.106672056 0.06317058 0.0349228
0003d0 d4 0c 34 3e e2 b4 1d 3e c6 88 69 3e 80 20 b4 3e
       0.17583019 0.15401033 0.22806081 0.35181046
0003e0 00 fa 5c 3d 0d 86 d0 bd 90 13 84 3d c7 95 93 bd
       0.053949356 -0.10181818 0.06449044 -0.07206302
0003f0 77 23 de 3d 8f 5e 5e 3d f3 5b 3a 3e 57 fd 71 bc
       0.10846608 0.054289397 0.18199138 -0.014769874

transformer.encoder.bias f4 [128]
000000 15 bf 91 bc 48 cf 5f 3c ac c0 07 b9 68 43 04 3c
       -0.01779131 0.01366026 -0.00012946379 0.0080727115
000010 37 83 1f 3c 87 35 57 bf ca 21 bd 3b 33 15 53 3e
       0.009735874 -0.8406605 0.0057718502 0.20613556
000020 b5 bb 7e bc a1 f9 6f 3b 49 a7 b3 bf 13 63 f7 3f
       -0.0155476825 0.0036617296 -1.4035426 1.932711
000030 1e 0f ea bf ae 2b b1 3f 42 87 4a 3c 70 b2 f3 bf
       -1.8285863 1.3841455 0.01236135 -1.903883
000040 10 fd 1a bf 36 0a 44 3e 84 7c 27 bc d9 90 b4 3e
       -0.6054239 0.1914452 -0.010222558 0.3526676
000050 79 76 79 bf 1a 0c fa 3d 36 0e ba bb e3 5f 23 c0
       -0.974464 0.122093394 -0.0056779636 -2.5527275
000060 fd 1c 9f 3f 49 77 2d be 62 6c 1b bb f2 4a 14 bc
       1.2430722 -0.16940035 -0.0023715724 -0.0090510715
000070 46 85 33 3b 2e 35 1e c0 3c d3 0a c0 d2 02 ce bc
       0.002739267 -2.4719958 -2.1691427 -0.02514783
000080 cb 5e 49 3f 5d 51 11 bc 5c 20 c8 bc 30 b0 ed bf
       0.7866027 -0.008869496 -0.024429493 -1.8569393
000090 25 ca 09 bc 6a 3c 39 3c 55 0d 22 c0 46 92 1a 3e
       -0.008410011 0.011305908 -2.5320637 0.15094861
0000a0 2c 19 68 3c f2 6f 09 40 58 aa 7a 3f 68 00 be 3f
       0.014166158 2.1474576 0.97916174 1.4843874
0000b0 5a 0b 8f be 87 f9 f1 bf 47 3c c1 ba d5 41 21 3c
       -0.27938348 -1.8904275 -0.0014742695 0.009842356
0000c0 f5 cb ed 3e f9 15 21 bd ff 9a 14 c0 1b 7b 2b c0
       0.4644467 -0.039327595 -2.3219602 -2.6793888
0000d0 ca 9b 0d 40 af bd 83 bc c6 74 14 bf d0 dc b4 3f
       2.2126336 -0.01608166 -0.5799068 1.4129887
0000e0 35 51 1e c0 27 19 f4 bf a6 fe 1d bf 50 e5 32 c0
       -2.4737065 -1.9070176 -0.6171669 -2.7952461
0000f0 62 ae 13 c0 38 ce 11 40 0e 24 89 bc d3 38 06 40
       -2.3075185 2.2782116 -0.016740825 2.0972183
000100 22 d7 2f be da b1 cc bf 4a 93 0e be 81 05 2a 40
       -0.1717191 -1.5991776 -0.13923374 2.656586
000110 3b c6 23 bf 0f 3b 0e c0 10 16 2b 3c b1 c4 6b 3c
       -0.6397435 -2.2223547 0.010442272 0.014390157
000120 b4 1d 98 bc 0b 62 f7 3f 5d a7 28 3f e6 92 b0 3c
       -0.018568851 1.9326795 0.65880376 0.021554422
000130 36 2c ff bf 3e 92 35 39 23 c2 ca bc d8 1f ad bd
       -1.9935367 0.00017315985 -0.024750775 -0.08453339
000140 54 3c 06 bd 1b 9b be bb 80 06 09 c0 d2 28 6c bf
       -0.032772377 -0.00581683 -2.1410217 -0.92249787
000150 23 9c d4 bb 19 d2 a5 ba a6 72 9a bc 1a 5a 1c 40
       -0.0064883395 -0.0012651115 -0.018853497 2.4429994
000160 80 2d 11 40 4f 95 a8 3b ab a7 c3 3a de df 63 bc
       2.268402 0.005144752 0.0014927288 -0.013908355
000170 63 b4 b8 3b 67 bd 95 bc 70 51 67 bf 41 4f e5 bf
       0.005636738 -0.01827879 -0.9035864 -1.7914811
000180 62 f9 13 40 98 8c 14 bf 1c 2d 08 c0 a1 c8 02 bb
       2.312096 -0.5802703 -2.1277533 -0.001995601
000190 27 6d d9 bb 6d 73 33 3f 10 e2 07 40 87 ee e2 3e
       -0.0066353264 0.70098 2.1231728 0.44322607
0001a0 69 02 4f bc 8b 16 ed 3c 30 2e 1a c0 ed dd 8f bc
       -0.012634852 0.028941413 -2.409069 -0.017561877
0001b0 84 61 d4 bb 52 8a bd 3c df 96 ff 3e 71 91 cd bd
       -0.0064813513 0.023137245 0.49919793 -0.10037506
0001c0 74 9e 0a c0 5a 38 5c bf 8c 0b f9 3c a3 cf d8 bf
       -2.1659212 -0.86023486 0.030401014 -1.6938366
0001d0 ea df 04 40 e1 30 20 40 69 8b 8b bb bd 01 20 40
       2.0761666 2.5029833 -0.0042585623 2.500106
0001e0 8f f6 2b c0 21 a8 b3 bc 92 f9 ff bd 70 a8 10 bc
       -2.6869237 -0.021930756 -0.12498774 -0.008829221
0001f0 57 45 cf 3b d0 74 54 3d 49 da 94 bf 64 cb 1a 40
       0.0063254046 0.051869214 -1.1629115 2.418664

transformer.transformer.layers.0.self_attn.in_proj_weight f4 [384, 128]
000000 5e 40 c3 3c ab f9 af 3e 9d 21 ae 3e ec 57 68 bf
       0.023834404 0.3437017 0.3401002 -0.9075916
000010 13 4e 02 bf c7 7a de bd 67 b9 c1 be ed 38 f3 3e
       -0.5090038 -0.10863262 -0.37836763 0.47504368
000020 6c 77 4e 3c ae 25 24 be d2 88 8e be 73 63 3f 3e
       0.012601715 -0.16029999 -0.2783876 0.1869028
000030 1f 4c b0 be 50 4c 79 bd 28 24 d1 3e 9f b1 cc bd
       -0.34433076 -0.060863793 0.40847898 -0.09994816
000040 c3 db 3a bd 66 85 5f bd 48 1b 3d bd 6c 3f cc 3d
       -0.045619737 -0.054570578 -0.046168596 0.09973034
000050 1f d8 2e be fd aa 8d be 2e 70 d2 be 59 65 94 3d
       -0.17074631 -0.27669516 -0.4110121 0.07245893
000060 b4 e6 cf 3d 31 95 7f 3e fb 86 59 be 98 53 5d 3e
       0.10151425 0.24959256 -0.21242897 0.2161392
000070 65 6c d7 be 26 08 0d be a6 f1 06 3e 3e a4 ae be
       -0.42074886 -0.1377264 0.13178119 -0.34109682
000080 92 1e a5 3e 56 48 cd 3d c6 ba ab 3e 23 6c ac 3d
       0.32249886 0.100235626 0.33540934 0.08419063
000090 2c f6 b0 be 30 51 0a 3f bf 57 91 bd 4b 82 5c 3e
       -0.34562814 0.5403013 -0.07096814 0.21534078
0000a0 9e da 17 bf 51 92 33 3e c1 27 b2 3e 48 89 67 bd
       -0.5931796 0.17536284 0.34795955 -0.056527406
0000b0 7d e5 e0 be 63 e1 22 bf 23 d5 08 bf d0 60 c0 3e
       -0.43925086 -0.6362516 -0.5345022 0.37573862
0000c0 4a f2 a1 3d 4f a1 64 be 37 fe 11 3d 81 ba 8e 3e
       0.07907541 -0.2232716 0.03564283 0.27876666
0000d0 e6 bf 42 3d a5 7d ef 3d 06 ed 28 3e cd 97 c0 3c
       0.04754629 0.11693887 0.16496667 0.023509884
0000e0 bb 62 29 be 30 df 96 bd 3e b9 be bd 49 0b 08 bd
       -0.16541569 -0.073667884 -0.09312676 -0.033213887
0000f0 6a 03 50 be e9 d6 30 3e 5a c7 0a 3f 9e 60 d3 3e
       -0.20313802 0.17269482 0.54210436 0.4128465
000100 3f 7a 0c 3c 76 dc 9f be c1 de 09 3f bc 86 7c bd
       0.008574068 -0.31222886 0.5385552 -0.06165193
000110 c1 75 27 be 97 5e 43 3c 9c 84 8a bd 9e 29 2a be
       -0.16353513 0.011924407 -0.067635745 -0.16617438
000120 e3 5d f2 3e d1 c6 d6 3e 69 39 06 be 49 48 03 bf
       0.47337255 0.4194856 -0.13107838 -0.51282173
000130 51 67 a0 3d 64 ab 36 3f ea 2d e6 bc ad 24 2d 3d
       0.07832206 0.7135527 -0.028098065 0.042271305
000140 fd 18 2d be 84 55 aa be 5f 16 ad 3d 57 f3 97 be
       -0.16904064 -0.33268368 0.084515326 -0.2967784
000150 9b 37 e2 3d 35 ea 12 3e 5e 55 01 bf 77 5c a9 be
       0.11045762 0.14347155 -0.50520885 -0.33078358
000160 04 0c 94 3e 2a 04 0d bb 76 cb 19 bf c0 e9 99 be
       0.28915417 -0.0021517375 -0.6007608 -0.3006115
000170 42 3d 15 be 01 a5 3a be af c4 f7 be 0b 35 82 3e
       -0.14574149 -0.18227006 -0.48392245 0.25431094
000180 c2 c8 10 3e 19 28 ad 3c b7 40 05 3e 50 47 fa be
       0.14139083 0.021137284 0.13012968 -0.48882532
000190 3f 1a 68 3e df f4 31 3e ad 81 8c 3d 0d 74 c4 be
       0.22666262 0.17378567 0.06860671 -0.3836979
0001a0 c2 c7 29 3f 49 7e 06 3e 99 05 46 3e 52 af a9 3b
       0.6632043 0.13134111 0.19338073 0.0051783705
0001b0 e0 ae 35 3f 98 e6 9f be 32 61 d6 b9 1a 3c 6b be
       0.70969963 -0.31230617 -0.00040889677 -0.22972146
0001c0 35 1b ba be 8d a8 56 3e 27 6b 50 be b2 db 47 3d
       -0.36348882 0.20962735 -0.20353375 0.048793502
0001d0 95 aa 55 be 2b af 73 3e ad 2e 15 3e b8 3e f1 3d
       -0.20865853 0.2379729 0.14568587 0.11779541
0001e0 be 6f 12 3d 16 0e 47 be 0e 34 5a 3d 2b 43 a1 3d
       0.035751097 -0.19438967 0.0532723 0.078741394
0001f0 3c 13 2a 3c a2 d1 71 3e 9b 3b a6 3e 21 1e b3 3e
       0.010380562 0.23615125 0.3246735 0.34983924
000200 ff 00 4d 3e e8 a2 78 be 1e 04 79 bf f1 19 80 3e
       0.20019911 -0.24280894 -0.9727191 0.25019792
000210 ca e8 65 be 9d 3c aa 3b a2 02 22 3e 46 45 03 bf
       -0.22452083 0.005195214 0.15821317 -0.5127758
000220 f1 78 2a bd 11 e8 05 be f9 ba 91 3e 9a c6 62 bd
       -0.041619245 -0.13076808 0.2846296 -0.055365182
000230 6e d7 db 3e c0 d1 b5 bd d8 98 1d bf 83 50 87 bd
       0.42937797 -0.08877897 -0.61561346 -0.06607153
000240 35 db 1b 3e a8 ca 2d 3d a8 6f e0 bd 93 f2 d9 bd
       0.1522034 0.042429596 -0.10958797 -0.106419705
000250 94 ef 7a 3d 6a 49 f9 3e 23 12 37 be bb 8f 03 bf
       0.061263636 0.48688823 -0.17878012 -0.5139119
000260 46 80 7c bd 77 67 bc be fa bf a3 3e eb 48 14 3e
       -0.06164577 -0.36797687 0.31982404 0.14480941
000270 94 ca 84 3f ce c1 70 3e 78 62 00 3e a4 93 cc 3e
       1.0374322 0.2351143 0.12537563 0.3995639
000280 cd c8 96 be da 68 10 3d da 6b 3d 3e 3d 27 c3 be
       -0.29450074 0.035256244 0.18498173 -0.38115874
000290 37 dc 9c 3e 86 a4 17 bf 6f c2 90 be 46 da 89 be
       0.3063676 -0.5923542 -0.2827334 -0.26924342
0002a0 e9 ab da 3e 09 9a 51 be 36 e0 c2 be 3c f0 3b bd
       0.42709282 -0.20468916 -0.38061684 -0.045883402
0002b0 cc 35 0d 3f ba 71 ef 3e a8 54 0c 3f 5e db a0 be
       0.5516021 0.46766454 0.54816675 -0.31417364
0002c0 f2 11 e1 bd 17 49 42 be 87 f6 a1 bd 08 fc c4 be
       -0.10989751 -0.18973194 -0.079083495 -0.38473535
0002d0 d0 af 1b be c5 02 25 be fd 79 47 3e 85 5a 83 3b
       -0.15203786 -0.16114338 0.19480129 0.0040085935
0002e0 f2 af ce bc ea d3 35 3e d0 3c d3 3e 02 e0 8d 3d
       -0.025230382 0.1775662 0.41257334 0.06927492
0002f0 3e 16 ae bd 5f 45 95 bd 5a 30 8f be 18 05 07 bf
       -0.08500336 -0.07288622 -0.27966577 -0.5274215
000300 dd 80 34 3e 99 fe c4 3e d8 7e 0f bf b1 92 23 be
       0.17627282 0.38475493 -0.56052923 -0.15973927
000310 5c 9f b6 3d 50 d7 c9 bb f0 be f7 bd af e9 82 3d
       0.08917114 -0.0061597005 -0.12096965 0.06392228
000320 66 c9 ce 3e bb 5e c9 be 95 2c 03 3d 05 91 71 3d
       0.4038803 -0.39330086 0.03202494 0.058976192
000330 70 93 a8 bd 09 a2 49 bf 58 b0 4f 3d e3 97 9d 3c
       -0.082312465 -0.7876287 0.050705284 0.019237464
000340 d4 68 2e bd 2e 12 f3 3e 20 ca c9 3d 4f d5 0e 3e
       -0.04258044 0.47474808 0.098530054 0.13948558
000350 6f c3 e2 3e 3f 17 94 be 69 c7 1e 3f b7 53 26 3f
       0.4428973 -0.28923985 0.62023026 0.6497149
000360 b2 45 80 be 05 09 0b bf be 3e 6d 3e 5d 99 8b bd
       -0.25053173 -0.5431064 0.23168465 -0.06816361
000370 c8 55 d8 3e 47 aa e9 3e 1c 27 f4 3e 1f 41 22 bf
       0.42252946 0.45637724 0.47686088 -0.63380617
000380 1e 22 b4 3c d0 e0 ff bb 2f 2a 3a bf 94 4b 35 3f
       0.021988925 -0.007808782 -0.7272062 0.7081845
000390 bd 32 c8 3d f9 0e 25 be 71 6a 9e 3e b6 19 d1 3e
       0.097753026 -0.16118993 0.30940583 0.40839928
0003a0 0c f7 cf be 7f 20 22 bd 90 7a ba 3d 8a 00 a8 3e
       -0.4061817 -0.039581772 0.09105408 0.3281291
0003b0 7b 2e 56 bf 18 33 9b 3d a8 ad 86 be fc ee 5f 3e
       -0.83664674 0.07578105 -0.26304364 0.21868509
0003c0 58 e1 ca 3d 56 bd c8 be a4 4e 66 bd f5 8e 30 3e
       0.09906262 -0.39206952 -0.05622734 0.17242034
0003d0 42 15 ae 3e 2a 1a 88 3e c4 33 ad 3b 11 d7 36 bd
       0.34000593 0.26582462 0.005285712 -0.044638697
0003e0 03 4e 01 bf 77 08 a8 3d 79 58 9c 3c 3c eb 39 3c
       -0.5050966 0.082047395 0.019085156 0.011347588
0003f0 31 6e 22 be a8 35 c0 be 4a 68 45 bf 8a 00 f0 bc
       -0.15862347 -0.37540936 -0.7711226 -0.029297132

transformer.transformer.layers.0.self_attn.in_proj_bias f4 [384]
000000 5e 2a eb 3d 2a 5e d6 bc 2a aa c9 3d 7b 9a 67 3c
       0.1148269 -0.026167948 0.09846909 0.014135952
000010 1a 1c 0b 3e 58 53 eb bd ac 8f 51 bd a3 04 c8 bd
       0.13584939 -0.11490506 -0.051162407 -0.097665094
000020 b5 92 e2 3d fa da a7 bb 96 74 03 3d a5 33 e3 3d
       0.110631384 -0.0051225396 0.032093607 0.11093835
000030 be f1 a1 bd 13 02 c7 3d ba d6 41 bd d6 6d 8e 3d
       -0.07907437 0.097171925 -0.04732392 0.06954543
000040 56 4a 21 3d 4a 5d 7b bd ff d7 18 3d 2f ea c3 bd
       0.039377533 -0.061368264 0.037315365 -0.09566151
000050 66 86 c3 3b b5 82 ac 3b 36 3e 0c 3e 29 fe ff bb
       0.0059669493 0.005264605 0.13695607 -0.0078122807
000060 87 31 23 3d 7e 71 82 bd 6b a6 48 3b ec e4 ea bd
       0.039842155 -0.06369303 0.003061677 -0.11469445
000070 3e 65 35 bd 62 b3 fb bd 9c 23 13 3e 26 e3 84 bd
       -0.044286005 -0.12290074 0.14369053 -0.064886376
000080 0e 60 4d be 41 0d 3a bd 4d a9 e6 3d 31 22 3b be
       -0.20056173 -0.045422796 0.1126276 -0.18274762
000090 5f 82 07 3e 8c 75 3f 3d 80 66 ce bb 62 ef 90 bd
       0.13233326 0.04674296 -0.00629884 -0.07076909
0000a0 e6 fb 68 bc c4 c5 0e 3e a1 7a f9 3d 46 ec 44 be
       -0.0142202135 0.13942629 0.12181593 -0.19230756
0000b0 2d 2f c5 3c 4c 8c 8e 3c f4 34 3a 3d aa dd 50 3d
       0.024070347 0.017400883 0.045460656 0.050992645
0000c0 2d b3 2c be 34 88 a4 3d 7a 43 43 be c3 f4 04 bd
       -0.16865225 0.08033791 -0.19068709 -0.032459985
0000d0 4d 43 cb bd a0 45 3a 3d a5 55 27 be 2e bb 90 bd
       -0.09924946 0.045476556 -0.16341265 -0.07066952
0000e0 af c7 4d 3e f7 c6 93 3d f6 64 19 3e a4 2f dc 3d
       0.20095704 0.07215684 0.1497992 0.10751274
0000f0 8a 7d 23 3e af de a5 3b 9c 0b bb 3c 6e dc 13 3e
       0.15965858 0.0050619463 0.022832684 0.14439556
000100 1e 78 d0 be 6d 0d f7 3d aa 62 94 3d b3 19 d9 be
       -0.40716642 0.12063108 0.07245381 -0.4240242
000110 32 9f 9e bd 78 73 84 3d 47 ce e9 3e f6 b5 6b be
       -0.07745208 0.064673364 0.4566519 -0.23018631
000120 4a 43 31 3e 89 99 ce 3d cb 72 c0 bb 18 e5 56 3d
       0.17310825 0.10087878 -0.0058730594 0.052464575
000130 04 5f 7f 3d 29 d5 64 3e 0e cb 16 3d 96 5c c8 bd
       0.062346473 0.22346939 0.03681474 -0.09783284
000140 da ac d9 3d 80 e5 85 bd 2f 85 1c 3d bc 7a e9 3d
       0.10628672 -0.06537914 0.03821295 0.11400363
000150 c6 da b3 bd 85 a9 f8 bc e7 64 91 bd 3d d4 9b 3d
       -0.08781962 -0.03035427 -0.07099324 0.076088406
000160 53 e8 90 3d f3 3a 46 bb 62 e4 ec 3e e0 4a 50 be
       0.07075562 -0.0030247539 0.46267992 -0.20341063
000170 89 dd f6 be ee 78 a3 3d c4 80 34 be e7 f4 c9 3e
       -0.48215893 0.0798205 -0.17627245 0.39444658
000180 7f 2c f3 3d 05 97 81 3e 3e a1 54 3d 31 ec e3 bd
       0.11873721 0.2531053 0.051911585 -0.11129034
000190 2b d4 79 3d 6b bd c3 3e 31 f7 1d 3e f0 29 87 3e
       0.060993355 0.38230452 0.15426327 0.26399183
0001a0 d0 61 8e bd db 9d 07 3e 76 93 c0 bd c9 dd ca 3e
       -0.0695225 0.13243811 -0.09403126 0.39622334
0001b0 6b 51 5c be d0 59 af 3d 1e ac 27 be cc 38 b2 3c
       -0.21515433 0.08562052 -0.16374251 0.021755598
0001c0 be 06 f8 3d 86 af 81 be 0a 6f da be 7f 11 cd 3c
       0.12110661 -0.25329226 -0.4266284 0.025032757
0001d0 38 53 0c 3e b3 97 3c bd 04 d1 18 be 37 8d 43 3e
       0.1370362 -0.04604311 -0.14923483 0.19096838
0001e0 70 93 da 3d 32 40 f7 3c 27 55 8f 3e 70 83 a1 3d
       0.10672653 0.030181978 0.27994654 0.07886398
0001f0 9e 06 80 3e 2e 3e 11 be a0 a0 69 3d b7 13 20 be
       0.2500505 -0.14183876 0.05703795 -0.1563252
000200 14 e0 a1 bd ce fc ee 3d 82 30 ad bc 5e 00 34 3d
       -0.07904068 0.116693124 -0.021141294 0.043945663
000210 15 ea 49 bc 44 63 33 3e 59 73 db 3d 10 5f b0 bd
       -0.012323876 0.17518336 0.1071536 -0.08611882
000220 4f 08 95 bd 48 2b f5 3d d0 92 c0 3d a9 f5 0c bc
       -0.07276975 0.11971146 0.09403002 -0.008603492
000230 fa 1e 9d 3c ab b4 36 be a5 09 ee 3d a8 85 25 3e
       0.01917981 -0.17842357 0.11622933 0.16164267
000240 20 02 c0 bd 06 31 7a ba 89 60 be 3d 58 05 fe bd
       -0.09375405 -0.0009544048 0.09295756 -0.12403363
000250 4c 56 e5 bd 8f 10 53 bd ac bb 29 bc f4 d1 f2 3c
       -0.111981004 -0.051529463 -0.010359686 0.02964113
000260 5e 95 ad bd fa 72 d5 bd 2f 54 d9 bd df 5e 64 3d
       -0.08475755 -0.10422321 -0.1061176 0.05575454
000270 d4 41 4e bd 41 e5 c3 3d a5 f0 cb 3d da 0e 7a 3d
       -0.050355747 0.09565211 0.09958009 0.06104932
000280 39 61 84 3e 94 54 28 be 4b 01 91 3c f8 5d 76 3e
       0.25855425 -0.16438514 0.017700812 0.24059284
000290 c4 d8 20 bd a3 1a d7 bc 41 b7 d7 3d 71 51 da bd
       -0.039269224 -0.026257819 0.10533 -0.10660065
0002a0 af 6b 08 3d 1b 57 1f be de 4f f0 3c 32 ba c3 bd
       0.03330582 -0.15560572 0.029334959 -0.09556998
0002b0 50 93 a7 3c cf 09 85 3d d5 d1 61 be 1e b9 8f bc
       0.020455986 0.064960115 -0.22052701 -0.017544325
0002c0 9a 0b 87 3e dd 9d 7f be db 1c 7e 3e 25 5e 0e 3d
       0.2637604 -0.24962564 0.24815695 0.034757752
0002d0 ca c8 24 3c a9 d6 33 be cf 6e 99 3e cb 0d 0e 3d
       0.0100576375 -0.17562355 0.29967353 0.034681123
0002e0 3e 01 86 bb 88 6a 2d be ec 44 b1 3d e1 57 a2 bd
       -0.0040895035 -0.1693517 0.08655724 -0.07926918
0002f0 3e 4d 78 bd 53 07 68 3d c0 b4 6c 3d 20 ca 79 be
       -0.06062054 0.05664761 0.057789564 -0.24393511
000300 fd 57 f4 bd e4 0e 4b be 5d b3 6b be e8 b1 a9 bd
       -0.11930845 -0.19829899 -0.2301764 -0.08285886
000310 ef 98 36 3e 29 46 64 be 5a ed 3d 3e 62 41 43 be
       0.17831777 -0.22292389 0.18547574 -0.1906791
000320 1d ac a1 bd e0 0c 76 be 39 62 79 be 00 45 76 be
       -0.07894156 -0.24028349 -0.24353875 -0.24049759
000330 ad 74 47 be 20 ca c3 3d 30 8b 58 be 02 68 f6 3d
       -0.19478102 0.09560037 -0.21146846 0.12031557
000340 8f 3e 64 be 2d 36 87 3d e8 68 33 be e4 c0 35 be
       -0.22289489 0.0660213 -0.17520487 -0.17749363
000350 51 59 51 3e 8c 45 53 3e 54 6b 55 3e fc 8d 37 be
       0.20444228 0.20631999 0.20841724 -0.17925256
000360 5b 80 63 be 44 91 50 3e 8f 07 1c 3e 00 de 82 be
       -0.22216932 0.20367914 0.15237258 -0.25559998
000370 92 b9 28 be ab 80 51 be c1 3c c2 bd 25 c3 ba 3d
       -0.1647704 -0.20459239 -0.09484244 0.09119252
000380 01 76 54 bd 67 63 0b bc 28 2a f7 bd c5 e7 25 3d
       -0.05187035 -0.008507586 -0.120685875 0.040504236
000390 5a fd 00 be 2f 12 95 3d 10 2c a2 bd 32 f5 9a 3b
       -0.12596646 0.07278859 -0.079185605 0.0047289366
0003a0 d7 16 bb bb ac 61 3b bd 09 64 93 bc 7c 78 9e 3d
       -0.00570951 -0.045747444 -0.017992036 0.07737824
0003b0 07 b5 18 3d 89 73 d4 bd ca 9c 59 bd 2c 25 a7 3d
       0.037282016 -0.10373599 -0.05312804 0.08161387
0003c0 99 69 ee 3c 70 e7 d5 3b 45 85 58 bd b9 8f e4 bd
       0.029103087 0.0065278336 -0.05286147 -0.111602254
0003d0 80 dc 76 3d b0 b4 df bd 10 20 ce 3d 58 26 28 be
       0.06026888 -0.10923135 0.10064709 -0.16420877
0003e0 bd 53 9d bd 5a ce 29 3c 08 d0 5c 3d 6a 4e ae bd
       -0.076819874 0.010364139 0.05390933 -0.0851105
0003f0 7e 4a dc 3c 86 2c f4 ba 92 61 87 bd ed 94 f0 bc
       0.02689099 -0.0018628992 -0.06610407 -0.029367888
