result_per_scene/past results_highD_01/old code files/results_old/model_epoch_2.pt (torch, 825517 bytes, 34 tensors)

attn.query.weight f4 [19, 19]
000000 32 94 14 be 56 f8 ae 3f c8 32 11 bf 3d 3d f8 3e
       -0.14509657 1.3669536 -0.5671811 0.4848422
000010 66 90 ab 3e a2 d3 85 3f 33 e0 c6 bf 21 04 96 bc
       0.33508605 1.045521 -1.553717 -0.018312516
000020 c8 e8 9b bf 90 5b fa 3e 18 2e 84 3e 55 a2 1b bf
       -1.2180414 0.48897982 0.25816417 -0.60794574
000030 17 19 a9 bf 9a 17 b4 3e 8c d6 9b 3d 79 4e 15 3e
       -1.3210782 0.35174257 0.07609281 0.14580716
000040 11 0d 81 bf c5 da 15 3f ae fa 75 3e bd 22 b9 3e
       -1.0082113 0.5853694 0.24021408 0.36159316
000050 2a 69 96 3f 2d fc 67 bf 0a 4f 43 3f 5e df f3 3e
       1.1750844 -0.90619165 0.7629248 0.47631353
000060 9a d1 58 3f 88 7b 88 3f 2b c5 30 bf 1c 60 73 bf
       0.84694827 1.0662699 -0.69050854 -0.95068526
000070 d5 b2 4e 3f 56 cd 64 bd 6d 15 b5 be 66 0d 9d bf
       0.80741626 -0.055859886 -0.3536791 -1.2269714
000080 dd ef 07 3f ca d5 6f 3e 5c 0d 63 be 29 e7 a1 bf
       0.5310038 0.23421398 -0.22173065 -1.264867
000090 93 37 94 3e 1a 46 ac 3e 5b fe 7c be 4c e5 af bf
       0.2894865 0.33647233 -0.24706404 -1.3741851
0000a0 0d 21 f8 3e d8 ad 3f bf ed 8b 03 be 0c 0f 87 bf
       0.48462716 -0.7487464 -0.12846346 -1.0551467
0000b0 47 ed 91 3e 2d e3 8e 3e b1 13 b0 3f f6 2b 1e bf
       0.2850134 0.27907696 1.3756009 -0.6178583
0000c0 fd c5 e1 3e b0 da b7 3e ff 56 ad 3f 9a f0 1c bf
       0.44096366 0.35909033 1.3542174 -0.6130463
0000d0 1d 87 84 3e fa 5a a1 3e e8 01 9f 3f 1c c4 c8 be
       0.25884333 0.31514722 1.2422457 -0.3921212
0000e0 b6 c4 a2 3e f8 7c 0f 3d b6 aa aa bf 6f da 72 3f
       0.31790704 0.03503129 -1.3333347 0.94864553
0000f0 5a 94 3d bf 4e 1e 0d be c5 37 6b bf 3f ea 63 40
       -0.7405449 -0.13781092 -0.9188197 3.5611722
000100 fb 28 22 be 5d 17 bc 3f 1f 94 14 bf 4a 95 0e 3f
       -0.15835945 1.469463 -0.58038515 0.5569655
000110 1d a9 ef 3e be e3 ac 3f d4 63 ba be 87 9b 8e 3e
       0.4680871 1.3507001 -0.36404288 0.27853033
000120 f1 83 a5 bd 50 45 ab 3f a6 bc 0f bf 45 aa 35 3e
       -0.080818065 1.3380527 -0.5614723 0.17740734
000130 27 7a 9a be de 7e c2 bf 21 d3 25 3f 34 db 7b bf
       -0.3017132 -1.5194967 0.6477528 -0.9838135
000140 54 33 e2 be c8 10 60 bf 84 4b 22 bf b6 0e bc 3d
       -0.44179785 -0.87525606 -0.6339648 0.091824934
000150 d8 de a5 3f 05 2f 09 bf 64 3b 45 3e 47 8a 10 3f
       1.2958632 -0.5358737 0.19260937 0.56460994
000160 25 e2 97 3f 1a 0f 13 bf 9c be 2d 3e 70 be 1c 3e
       1.1865889 -0.5744492 0.16967243 0.15307021
000170 5b 6f c4 3f ac bb fc be 92 92 1d 3e 0b 01 a2 be
       1.5346483 -0.49361932 0.15387943 -0.3164142
000180 06 b7 bb bf d8 bc 72 3f d3 33 47 bf 59 cd b0 be
       -1.4665229 0.948194 -0.7781345 -0.34531668
000190 73 9f 49 bf 60 10 27 40 7a fa ad 3e 19 1e 91 3f
       -0.78758925 2.6103745 0.3398016 1.133731
0001a0 9e d5 bf be ff 19 2f 3e d8 cc 0f 3f 67 8c 8c 3f
       -0.37467664 0.1709976 0.5617194 1.0980347
0001b0 26 4c 0e bf 00 54 60 3d a0 c8 63 3e 9c 4c aa 3f
       -0.55584943 0.05476761 0.22244501 1.3304629
0001c0 45 c9 92 be 81 fe f2 bd d9 b1 3a 3c ac 10 9f bf
       -0.2866918 -0.11864949 0.011394941 -1.2426963
0001d0 a2 0d 80 3f 60 c4 18 bf c6 76 02 bf ea 0d 9c bf
       1.000416 -0.59674644 -0.50962484 -1.2191746
0001e0 7e 5f 7c 3f 65 23 52 3e 2d e2 81 3f da a4 df be
       0.9858321 0.20521314 1.0147148 -0.4368046
0001f0 44 25 e7 3d c0 6b ba 3e b0 49 a2 3f d2 7a 3c bf
       0.11286405 0.36410332 1.2678738 -0.7362491
000200 25 bb dc 3c cf e6 f1 3c d0 e3 b0 3f c7 90 e5 be
       0.026944706 0.029529003 1.3819523 -0.4483702
000210 3d c5 1c be c0 d1 b0 3c b7 31 9e bf 93 fb 35 3f
       -0.15309615 0.021584392 -1.2358922 0.71086997
000220 8d 3f 5c bf 21 d1 29 be d7 18 8e bf 02 ad 6c 3f
       -0.8603447 -0.16583683 -1.110133 0.9245149
000230 99 fb b7 3e 91 98 95 3f ca 89 1a bf 04 eb d6 3c
       0.3593414 1.1687185 -0.603665 0.026235111
000240 64 84 e6 3e 0b f1 b0 3f d4 36 9c be ca 47 cd be
       0.4502288 1.382356 -0.3051058 -0.40093833
000250 3a 45 d4 bd cd 3f a1 3f de 3e 9e be f6 d3 66 bd
       -0.103647664 1.2597595 -0.3090734 -0.056354485
000260 4e f3 7b 3c 3f da 7c bf 0e 01 36 3f a1 95 78 bf
       0.015377833 -0.9877052 0.7109536 -0.97103316
000270 fa 54 be be 45 73 85 bf 42 b0 48 40 52 94 6d 3d
       -0.37174207 -1.0425802 3.135758 0.058002777
000280 44 3c 88 3f 08 a1 a0 be 0c 99 9c bc a4 65 a3 3e
       1.0643392 -0.31372857 -0.019115947 0.31913483
000290 8d 7c a0 3f df 0b e2 be 8a a5 89 3c f0 90 b6 3d
       1.253801 -0.44149682 0.016802568 0.089143634
0002a0 72 bd ac 3f dc 4b 52 bf bf fc f8 be 22 f8 e3 bd
       1.3495314 -0.82147 -0.4863033 -0.11131312
0002b0 b1 ba 8e bf 10 66 3a 3f 7a 90 68 bf 77 fe f6 bd
       -1.1150724 0.72811985 -0.90845454 -0.12060254
0002c0 c7 c4 65 bf 99 94 06 40 10 a7 20 bc 49 24 a6 3f
       -0.89753383 2.1028197 -0.009805456 1.2979823
0002d0 14 73 f2 be eb f7 d7 3b 05 43 36 3f 8b d3 a4 3f
       -0.47353423 0.0065908334 0.71196014 1.2877058
0002e0 ce c4 9f be 8c 8d 74 bb d8 3f 2f 3e 76 fd b6 3f
       -0.31204838 -0.0037315814 0.17114198 1.42961
0002f0 b9 d1 8e be 7b c0 6e be 54 9d 6c 3e ee 81 af 3f
       -0.2789438 -0.23315613 0.23106891 1.3711526
000300 8c 02 2b bf b3 a2 61 3f 7a e1 78 3e 9c 2d 73 3f
       -0.6680076 0.88138884 0.24304762 0.9499147
000310 ac f8 72 c0 95 8d 58 bd a7 6f 92 bf cc f6 e4 3e
       -3.7964277 -0.0528694 -1.1440324 0.4471954
000320 71 a3 68 be 20 76 b4 be 6a cd b5 bf 42 b5 06 3f
       -0.22718598 -0.35246372 -1.4203312 0.5262033
000330 8a 94 2c be 1c bd 42 bb ba 07 ac bf ab 69 53 3e
       -0.16853538 -0.0029714769 -1.3439858 0.20645778
000340 ff b2 15 be 4a 47 2b 3d d7 12 a9 3f 0b 6d 43 bf
       -0.14619063 0.041816033 1.3208874 -0.7633826
000350 a6 c7 61 3f 1b d2 a9 3e ce c2 77 3f 42 87 70 c0
       0.88195264 0.3316811 0.96781623 -3.7582555
000360 ed ad 63 be c9 6e b3 bf 81 cc 08 3f ef 2a 1a bd
       -0.22234316 -1.4018184 0.5343705 -0.0376386
000370 8e 08 a5 be 71 d8 a9 bf 7a 22 b8 3e 8a 3d af 3d
       -0.3223309 -1.3269178 0.35963804 0.085566595
000380 09 29 c8 3d 4b f3 a7 bf 8c 23 31 3f 0c 3d 0c 3d
       0.09773452 -1.3121122 0.69194865 0.034237906
000390 6c 41 35 3d 8c 41 b1 bf 5f be 62 3f bd a8 54 bf
       0.044251844 -1.3848128 0.88571733 -0.83069974
0003a0 64 e2 0a bf 5e 03 76 bf 82 69 2b 40 15 cf 30 be
       -0.54251695 -0.9609889 2.6783147 -0.17266496
0003b0 c2 68 89 3f 63 ca 91 be 28 b7 0b bb ed be 27 3f
       1.0735095 -0.2847472 -0.0021318886 0.65525705
0003c0 f8 46 a4 3f 91 61 e8 be 7d ff b2 bd 55 37 81 be
       1.2834158 -0.45386937 -0.08740137 -0.25237527
0003d0 ec 6d a9 3f 49 c3 6c bf f8 b6 aa be 80 1a ee 3b
       1.323667 -0.9248548 -0.3334272 0.0072663426
0003e0 db 72 9c bf 0c cc 48 3f 6d 0c 2e bf e6 be cf be
       -1.2222551 0.7843635 -0.6798771 -0.4057533
0003f0 ed f3 7f bf 69 18 1d bf ba a5 6a bd b8 5f 87 3f
       -0.99981576 -0.6136537 -0.057286955 1.0576086

attn.query.bias f4 [19]
000000 8e 7b ae 3f cb 90 a9 3f 49 22 a6 bf d7 ac ba bf
       1.3631456 1.3247312 -1.2979213 -1.4583997
000010 ec 25 9d bf 46 1d 5b bf 69 d9 e7 bf cf 18 d2 bf
       -1.2277198 -0.8559154 -1.8113223 -1.6413821
000020 e7 0e b0 bf d6 f6 8f bf be c4 a3 3f 76 1a 93 3f
       -1.3754548 -1.1247203 1.2794416 1.149245
000030 a8 e6 b7 bf 15 55 9d bf 5e 38 4e bf 5b 00 c2 3f
       -1.4367266 -1.229159 -0.8055476 1.5156358
000040 42 81 91 bf 14 c0 a4 bf f1 81 bd bf
       -1.1367571 -1.2871118 -1.480528

attn.key.weight f4 [19, 19]
000000 83 f5 15 bf a0 04 bd bf 93 f6 91 3f 53 5e 98 be
       -0.58577746 -1.4767036 1.1403373 -0.29759464
000010 9a 49 53 3d b1 aa 3d bf 8a bc d8 bd 25 c1 4e 3d
       0.051583864 -0.7408858 -0.10582836 0.050477166
000020 b1 73 87 3f 82 8e 57 bf 0d 88 94 be a7 65 43 3f
       1.0582181 -0.84201825 -0.29010049 0.76326984
000030 0d ce ac 3f ea a1 2a bf 02 d2 b6 be 31 6a ca 3e
       1.3500382 -0.6665331 -0.35707098 0.39534143
000040 e4 38 a7 3f bc 3a 27 bf c8 59 12 be f1 59 27 bf
       1.3064237 -0.65323997 -0.14292061 -0.65371615
000050 cb d4 b2 bf 66 60 9d 3f 59 7b 06 bf dc 4f 06 bd
       -1.3971189 1.2295043 -0.52531964 -0.032791004
000060 9d 72 6f be ba a3 8b 3f a9 78 26 3f a1 22 a8 3f
       -0.23383565 1.090934 0.6502786 1.3135568
000070 84 fc 42 bf ed 2c 81 3e dd 86 00 3f a1 77 ae 3f
       -0.7616656 0.25229588 0.50205785 1.3630258
000080 5f 3e 2f bf 42 43 3a be 2c 31 95 3e 11 af 7c 3f
       -0.68454546 -0.1818972 0.29139078 0.9870463
000090 41 17 0e bf ec e0 c3 3d 76 84 be 3e 1e d1 ad 3f
       -0.5550423 0.09564385 0.37210435 1.3579443
0000a0 d6 72 bf bf 6e 8a 3c 3f a0 a7 39 3e f4 42 c7 3e
       -1.495692 0.73648727 0.1813035 0.3891827
0000b0 43 4f c2 be 98 c0 37 bd 87 65 9e bf 9a bd 3b 3f
       -0.37951097 -0.044861406 -1.2374734 0.73336184
0000c0 ae 72 a3 be 28 c3 de be d6 ef b9 bf 92 6c 8c 3f
       -0.3192343 -0.43508267 -1.4526317 1.0970633
0000d0 7c ca 01 bf 34 4a 33 bd a2 e6 b2 bf 36 02 6e 3f
       -0.5069959 -0.043771937 -1.3976634 0.92972124
0000e0 15 e7 f7 be 94 fd 48 3d c0 51 c3 3f 4d 67 c5 bf
       -0.4841849 0.049069956 1.5259323 -1.542215
0000f0 12 e2 d4 3e 5a dc ff 3d 7a f8 14 3f 91 4e 9a 3f
       0.41578728 0.124932006 0.58191645 1.2055227
000100 50 3c 85 3c cf 1c b5 bf 47 34 58 3f 4a 2d 81 be
       0.01626411 -1.4149417 0.8445477 -0.25229865
000110 6d 1a 2d bf 3a b2 b4 bf 9d a2 57 3f 21 4e 77 be
       -0.6761845 -1.411689 0.84232503 -0.24150898
000120 ec 00 03 3e 91 7d b8 bf 14 34 87 3f 35 63 0f bf
       0.1279332 -1.441332 1.0562768 -0.5601075
000130 3d 03 21 3e 73 82 a6 3f f9 06 9d bf 3c 64 41 3f
       0.15723892 1.300856 -1.2267753 0.7554357
000140 27 4f 14 3d a2 b4 e1 3e 7c 4b 7d bf d4 ec 13 be
       0.036208298 0.44083124 -0.98943305 -0.14445812
000150 f7 6b 9c bf 4e cc 1b 3f 2a b9 00 bf 09 82 28 bf
       -1.2220448 0.6085862 -0.5028254 -0.6582342
000160 68 7f c4 bf 5b 02 f5 3e 02 c4 0d bf b5 e6 0a be
       -1.5351381 0.4785336 -0.5537721 -0.1356457
000170 eb 0e bf bf 84 0e 1a 3f 9e 5d da be aa 0c ca 3e
       -1.4926428 0.601784 -0.4264955 0.39462787
000180 4f 30 b7 3f ab 83 97 bf 57 95 14 3f bc 8a 66 3e
       1.4311618 -1.1837057 0.58040375 0.2251386
000190 5b 5f 2a 3f e7 fc 20 3f 0f 14 b4 be d1 98 a7 bf
       0.6655175 0.628859 -0.35171553 -1.3093511
0001a0 f1 be 4d 3f f8 c1 db be 57 e4 39 bf 83 e2 bd bf
       0.8036948 -0.42921424 -0.72614044 -1.4834751
0001b0 88 b1 08 3f 00 4a e1 be 80 29 28 be ec 79 8c bf
       0.5339589 -0.4400177 -0.16422081 -1.0974708
0001c0 98 b4 18 3f fa 5d 2b be 76 a9 ef 3e 59 00 bf 3f
       0.59650564 -0.16735068 0.46808976 1.4921981
0001d0 1d 70 bc bf b7 4a de 3e 91 cc e9 3b 93 ad b3 3e
       -1.4721714 0.43416378 0.007134982 0.35093364
0001e0 1d d9 28 bd cd 9c 60 bb b5 60 9c bf b7 03 6f 3f
       -0.04122268 -0.0034273148 -1.2217013 0.93365043
0001f0 98 58 8e 3e 24 f6 5d bf 40 c4 b2 bf 47 55 41 3f
       0.27801967 -0.86703706 -1.3966141 0.7552075
000200 cf 4e 9a 3e b8 02 d9 be bc 7b af bf c6 2e 7a 3f
       0.3013825 -0.42384887 -1.3709636 0.9772762
000210 1f ec 58 3c c6 93 14 3f a1 21 a1 3f b3 60 ae bf
       0.013239889 0.58037984 1.2588388 -1.362326
000220 d5 7b 79 3e df 9d 7c 3e 0b 50 1e 3f 27 65 10 be
       0.24363644 0.24669598 0.61840886 -0.14101087
000230 b3 fa 27 be a6 3d 91 bf c5 8c 38 3f 5e ba 41 be
       -0.16404228 -1.1346939 0.720898 -0.1891875
000240 1b bc 6e bf cc ef c4 bf 93 80 47 3f 49 db a9 3e
       -0.93255776 -1.538568 0.77930564 0.33175114
000250 53 29 5b be 62 74 8f bf 13 55 1f 3f 4b 58 be be
       -0.21402483 -1.1207392 0.6223919 -0.37176737
000260 ce 43 d9 3e c5 02 a4 3f d6 9c 8f bf b4 3d 1d 3e
       0.42434543 1.2813345 -1.1219738 0.15355569
000270 0d c9 32 bb 87 b0 4b 3f 15 b7 78 3f e9 f0 25 3c
       -0.002728048 0.79566234 0.9715436 0.010128238
000280 72 bd 98 bf 70 13 4a 3f 20 c1 c8 3d 07 83 1e bf
       -1.1932814 0.7893591 0.09802461 -0.6191868
000290 c7 5e 9f bf 36 04 73 3f 91 fe 5a 3e 18 8a bc bc
       -1.2450799 0.949283 0.21386172 -0.023015067
0002a0 64 f2 92 bf 02 7e 84 3f c1 d1 38 be 0d 55 c4 3e
       -1.1480222 1.0350955 -0.18048765 0.3834614
0002b0 a5 f3 c7 3f 99 7f c0 bf f5 e5 26 3f 55 89 3d 3d
       1.562123 -1.503894 0.65194637 0.04627355
0002c0 52 bf 25 3f 1a 7d b2 3e 83 e8 12 3d 2c 6a bb bf
       0.64745057 0.3486107 0.03586627 -1.4641776
0002d0 8d e7 f8 3e af cf a5 be 3e 18 e5 be 69 cd b5 bf
       0.4861416 -0.32385013 -0.44745058 -1.4203311
0002e0 cf 4b e7 3e 86 a8 c5 bd 03 4d 95 be 54 fc 95 bf
       0.45175025 -0.09651284 -0.29160318 -1.171763
0002f0 5b 2d 19 3f 6a a0 e1 be 27 09 d9 be d5 2d 95 bf
       0.5983483 -0.440677 -0.42389795 -1.1654612
000300 c8 a3 b9 3f 6c 3b b3 be 8c cd 9f bd 12 7b 30 bf
       1.4503107 -0.35006273 -0.07802877 -0.6893779
000310 f0 82 bc bf e9 37 13 3e d8 03 97 3f 82 41 1b bf
       -1.4727459 0.14376797 1.1798048 -0.6064683
000320 6f c9 3d 3e 9e a5 5f 3f b0 c3 b8 3f b9 cd 47 bf
       0.18533872 0.87362087 1.4434719 -0.7804828
000330 8d 74 5e 3e 5d 94 83 bd cc e2 9e 3f ba 41 65 bf
       0.21724148 -0.064247824 1.2412963 -0.89553416
000340 a6 52 08 3f af 34 3c be 65 48 c0 bf 97 60 a7 3f
       0.5325111 -0.18379472 -1.5022093 1.3076352
000350 ad 0b b4 be 05 a0 27 be af 00 58 bf 16 59 b9 bf
       -0.35165158 -0.16369636 -0.84376043 -1.4480312
000360 e2 32 3d 3e 0c 65 99 3f 7d 03 41 bf b6 41 89 3e
       0.18476442 1.1983962 -0.7539595 0.26807946
000370 f1 41 33 3f 1d 25 b5 3f 2a 7a 56 bf 55 c6 d9 3d
       0.70022494 1.4151951 -0.8378016 0.10633532
000380 17 59 b2 3d c5 c2 ba 3f 2c 6c 2e bf ba 36 d9 3d
       0.08708399 1.4590689 -0.6813381 0.106061414
000390 6b 4f 96 3e f8 5a 99 3f cf 8c b0 bf 19 24 9c 3e
       0.29357466 1.1980886 -1.3792971 0.3049629
0003a0 ca 0a b4 3c 0c 9c 44 3f f3 9a 27 3f 1e 67 22 3e
       0.0219778 0.7680061 0.6547081 0.15859649
0003b0 e9 4c a7 bf 35 ae 6b 3f 26 d5 e9 bd d2 1b 5e bf
       -1.3070346 0.92062694 -0.11417608 -0.867612
0003c0 79 1b a3 bf 27 90 2a 3f d8 ea 0b 3e 7e e4 07 3d
       -1.2742759 0.6662621 0.13663805 0.03317689
0003d0 5f 7f a5 bf 0c 51 69 3f d5 cb e3 3c 8e 0d 79 3d
       -1.2929496 0.9113929 0.027807156 0.060803942
0003e0 fc 1e ca 3f c5 fa ab bf d0 ed 3d 3f 76 f3 f5 3c
       1.5790706 -1.3435904 0.74191 0.030023318
0003f0 c1 53 e2 3e a2 82 63 bf e5 83 f3 3d bd 99 ad bf
       0.44204524 -0.88871205 0.11890391 -1.3562542

attn.key.bias f4 [19]
000000 a8 f5 b3 bf c4 c3 9c bf 7b 61 7e 3f 99 41 92 3f
       -1.4059343 -1.2247243 0.99367493 1.1426269
000010 44 aa b7 3f cb a4 97 3f 3d 78 c5 3f f1 06 9f 3f
       1.4348836 1.1847166 1.5427319 1.2423993
000020 55 4a b5 3f 1c 3c 87 3f 6b 5e 86 bf 6a 7f a3 bf
       1.4163309 1.0565219 -1.0497564 -1.2773259
000030 cf dd aa 3f 7b a9 9f 3f 6c 4e ac 3f 06 67 9f bf
       1.3348941 1.2473596 1.3461432 -1.2453315
000040 99 d2 a9 3f 0d 5b 9f 3f f5 b8 ad 3f
       1.3267394 1.2449661 1.357207

attn.value.weight f4 [19, 19]
000000 6e 62 66 3f 9f 92 05 3e b0 8d 9c bc 54 c9 57 3c
       0.8999394 0.13044213 -0.01911053 0.013170559
000010 17 c3 8b ba 5c 23 f1 ba b9 a4 6b bc 8e 09 05 3b
       -0.0010663 -0.0018397379 -0.014382535 0.0020299884
000020 7f 35 4d 3c 33 95 de 3b 2d 7d 63 3b 1f 18 43 bc
       0.0125249615 0.0067926883 0.0034712062 -0.011907606
000030 61 ce 73 3b f4 73 fc bb 60 28 ac 3a 47 03 73 bc
       0.0037201869 -0.0077042524 0.0013134591 -0.014832324
000040 2d c0 8f 3c 1d bd 0d bc 3d 2a 9f 3a 42 7d 5a be
       0.017547691 -0.008651045 0.0012143325 -0.21336845
000050 36 bb 0d 3f 42 5f 1e bc 44 b1 52 3c 1a 6b af 3b
       0.55363786 -0.009666266 0.012859646 0.0053533437
000060 31 0e 02 bc ab ee eb bc fd c2 0c 3c fd 1a f5 bb
       -0.007937954 -0.02880033 0.008591411 -0.007480024
000070 8d 90 04 3c 47 35 87 3c f3 04 98 3b 0e d6 1e bc
       0.008091104 0.016504897 0.004639262 -0.009694589
000080 bc 42 41 bc d6 a0 d7 bb 29 61 27 3b 82 eb 9c bb
       -0.011795696 -0.0065804524 0.002554009 -0.004788817
000090 d5 51 b3 3a a2 4f 39 3b 35 6e a9 bd 7b 16 6e 3d
       0.0013681004 0.0028276225 -0.082729734 0.058126908
0000a0 95 f2 6a bf ae 24 ea 3d 48 9f 84 bc a9 4f 5f 3d
       -0.917764 0.11432777 -0.016189232 0.05451933
0000b0 11 cf 6f bd 73 ee af bc 60 c0 75 3d e1 cc 86 bb
       -0.058547083 -0.021476006 0.059997916 -0.004113779
0000c0 46 a5 3c bc fc da c3 3c e1 cd 0e bc 63 d9 96 b9
       -0.011514014 0.02390813 -0.008716078 -0.00028772195
0000d0 bd b5 02 3e 36 ff 17 bd 4a bd 3d 3a f8 5f 67 3d
       0.1276464 -0.037108622 0.0007237984 0.056488007
0000e0 d9 6c 9f 3c 19 7d be bc 58 53 a7 bc 03 79 34 bd
       0.019461082 -0.02325301 -0.020425484 -0.04406072
0000f0 8b 10 67 bf 70 2b 0d 3d a6 67 3a be e2 b5 39 be
       -0.9025962 0.034465253 -0.18203601 -0.18135789
000100 23 45 ab 3c 15 fb 83 bd 1e 64 57 bb 85 ca 50 3d
       0.02090699 -0.064443745 -0.003286607 0.050974388
000110 2b c2 87 3c 44 23 31 bd 8c 78 98 bd f2 87 93 bd
       0.016572079 -0.043246523 -0.074448675 -0.07203664
000120 f3 de 47 bc fd 75 a2 3c 72 70 d6 3a 9a 36 19 bc
       -0.012199151 0.019831652 0.0016360416 -0.009351397
000130 7e 17 c5 ba a8 81 34 bd 23 a8 73 bd ba 5d 59 3d
       -0.0015036908 -0.044068962 -0.05948652 0.0530679
000140 23 c5 89 bf e6 b9 0b 3d fc 8d cb 3d 06 af 07 bd
       -1.0763286 0.034112833 0.09939191 -0.0331259
000150 10 19 9d bd 2f 6a 94 bc 17 c0 d7 3c d0 b7 ee 3c
       -0.07670796 -0.018117039 0.026336713 0.029140383
000160 ed 26 46 3a 2d 56 a5 bd 22 2d 7e bd e5 00 24 bc
       0.0007558901 -0.08073077 -0.06205476 -0.010009979
000170 25 17 a9 3c 4b b0 48 3d bf f1 c4 bb 09 b6 9d 3c
       0.020640919 0.04899625 -0.0060102637 0.01925184
000180 a0 ce 00 bc cc 43 7e bd d7 f1 3e be cd 77 9d bd
       -0.007861763 -0.062076375 -0.18646942 -0.07688866
000190 78 b5 7f bf 43 f0 b9 3d c0 84 91 bc 56 bf 1c 3d
       -0.99886274 0.090790294 -0.017763495 0.03826841
0001a0 65 07 50 3d 25 0e 43 bd 88 6c 2e bc f9 7e 15 bd
       0.050788302 -0.04762091 -0.010645993 -0.036498044
0001b0 3a c1 f3 bc c2 4a 95 ba db 05 de bb 9b 23 1f bd
       -0.029755224 -0.0011390077 -0.0067756004 -0.038852315
0001c0 6a c8 40 3d c2 b5 1f bd 63 ae 1f 3d 4b cb c2 be
       0.04706613 -0.038991697 0.038984668 -0.38045725
0001d0 64 7b b2 be fd c9 fd 3e 5d f4 04 3d 78 fc 94 3c
       -0.34859765 0.49568167 0.032459605 0.018186793
0001e0 0c 5a a4 bf ad 62 1e 3d 67 f8 90 bd 78 75 ac 3b
       -1.283998 0.038668323 -0.07078629 0.005263027
0001f0 a1 f9 fa 3d b7 a3 b3 3c 6e b3 30 be 72 23 d7 bd
       0.12254644 0.021928651 -0.17255947 -0.105048075
000200 6b a3 7b 3e 4e f8 99 3c 02 87 75 3c ba e3 32 be
       0.24574058 0.018795159 0.014985802 -0.17469683
000210 18 2d 82 3d c7 a4 15 3b 96 7a 11 3d 26 4c 4b bd
       0.06356257 0.002283381 0.035517298 -0.049633168
000220 85 61 a1 3c fd f9 5a bd 18 c7 03 3c 1c cc 87 3d
       0.019699821 -0.053461064 0.008043073 0.06630728
000230 c7 6d 85 bf bc f9 81 3b 3a f0 ab bd 79 a9 87 bc
       -1.0424126 0.0039665382 -0.08395429 -0.016560303
000240 ee 7e 96 3c 45 7e 40 3d 61 85 84 bd 71 88 5a 3d
       0.018371072 0.04699542 -0.064707525 0.053352777
000250 99 67 95 bc 26 4d 05 bd f3 54 10 3c 6d 8d 42 bc
       -0.018237876 -0.032544278 0.008809316 -0.011874539
000260 6a aa 4f bd 9d 21 73 bb 64 d8 05 bc 15 59 73 3d
       -0.05069963 -0.0037098892 -0.008169267 0.059411127
000270 6f 4f 04 bd 17 08 1f bc 21 be cc bd a7 49 1e bd
       -0.032302316 -0.009706519 -0.09997202 -0.03864446
000280 77 8b 85 bf b1 96 e8 bd 90 5c a7 bd ff 81 85 3d
       -1.0433186 -0.11356867 -0.08171952 0.065189354
000290 f5 5e 0b bd 81 b6 22 bd 09 ce 54 bd c1 84 7b bd
       -0.034026105 -0.03972483 -0.051954303 -0.0614059
0002a0 33 75 00 bd 7f 8c 19 bd 7b 7f a7 3c 7e 9b 5c bb
       -0.03136177 -0.037487503 0.02044653 -0.0033662017
0002b0 e2 48 cf bb ce 69 9e bb 47 9c 42 3d e1 71 79 bd
       -0.006325827 -0.0048343902 0.04751232 -0.06089962
0002c0 2c f6 b3 3d 5a 67 ca 3d 25 6e cb 3b bb b2 40 bc
       0.08787188 0.09882994 0.0062081986 -0.011761363
0002d0 18 85 78 bf c3 dd 4b 3d 05 f9 df 3c f7 c6 0e 3c
       -0.97078085 0.049772035 0.027340421 0.008714429
0002e0 98 3f 24 bd d2 6c 83 bc 7f ed 5c bc ad 09 05 3c
       -0.04009971 -0.0160431 -0.013484358 0.008119983
0002f0 27 19 c9 bc 7a 7e 32 3d 65 3a 1c bd 8d 47 d8 bc
       -0.024548126 0.04357765 -0.038141627 -0.026401306
000300 e8 2c e1 bc 89 35 63 bd 3a ed 38 bd 78 17 65 3d
       -0.027487233 -0.055470977 -0.045148112 0.055930585
000310 95 11 a2 3c 65 f9 3b bc 15 96 2d bd 61 b9 7c 3d
       0.019783774 -0.0114730345 -0.042379458 0.06170023
000320 30 6c 84 bf cb f3 de 3c 6e e5 2f bb 76 df 9f bd
       -1.0345516 0.027215859 -0.0026839632 -0.07806294
000330 c4 08 af bc 6c 0e 14 bd 6f 9c 05 3d 16 98 01 3c
       -0.021366484 -0.036146566 0.03261989 0.007909795
000340 6d e6 91 bd 54 59 94 bc ba cb ad 3d 2a 95 fc bc
       -0.07124028 -0.018109001 0.084861234 -0.030832846
000350 29 06 6d bd af 67 9d bd ca 42 2c 3d 2e 85 02 3d
       -0.057867203 -0.07685792 0.042055883 0.03186529
000360 ef 3a e0 bc b6 7d f4 3c af fd 8c bd 7d 7d 31 bd
       -0.027371852 0.0298451 -0.06884324 -0.043332566
000370 69 b6 79 bf 24 52 ea 3c a5 7f 0c bc 90 64 09 3d
       -0.9754396 0.02860362 -0.008575355 0.03354317
000380 4f 44 f4 bc b6 af 37 bc dc 28 df 3c fa 74 75 bc
       -0.029817728 -0.011211326 0.027241163 -0.014981503
000390 4e bd 1c bd 13 3f 98 3b 27 02 c2 bb 4a 68 54 3c
       -0.038266473 0.004646191 -0.0059206667 0.012964318
0003a0 7d a3 38 3c e6 09 3c bd 75 4d ef bd 6e f5 d3 bc
       0.011269447 -0.045907877 -0.11684696 -0.025873866
0003b0 df eb e1 bc b0 20 88 bd 17 08 a2 bc 83 30 2a 3d
       -0.027578292 -0.0664686 -0.019779248 0.04155017
0003c0 18 15 84 bf 84 9e 82 bc 32 f1 e2 bd e1 14 46 bd
       -1.0318937 -0.015944727 -0.110811606 -0.048359755
0003d0 f5 eb 20 bd f2 9c 5b bd 35 f8 10 3d ce 5b f1 bc
       -0.039287526 -0.05361647 0.03539296 -0.029462721
0003e0 12 30 ff bc fb f9 10 3d 52 da ad bd 23 f3 8d bc
       -0.031150851 0.03539465 -0.08488907 -0.01732785
0003f0 e4 d8 d3 3c f8 87 dd bd cd 45 aa 3c 00 ec 23 bd
       0.025860257 -0.108169496 0.020785237 -0.04001999

attn.value.bias f4 [19]
000000 e8 56 4b bf 97 0f 1a c0 1b b7 56 3d 5c ed 24 3c
       -0.79429483 -2.4072015 0.052420717 0.0100663565
000010 71 90 c5 bc 5f b8 dc bc a6 2b 8d 3e 0e 4d 46 3b
       -0.024116727 -0.026943384 0.27572364 0.003025833
000020 58 03 b8 bc 7d 51 1e 3c c4 5e 9f bc de 6e 8a 3c
       -0.022462532 0.009662983 -0.019454367 0.016898569
000030 35 72 a7 3c ad ae cb 3b 82 5e bc 3c 40 bd 7b 3c
       0.0204402 0.0062158913 0.022994284 0.015364945
000040 91 f9 4b 3b c3 1b d6 bc 0c 41 b2 3c
       0.0031124095 -0.026136285 0.021759532

transformer.encoder.weight f4 [128, 19]
000000 18 3e 1e bf 96 5b 97 3e ee 58 3f 3e d0 b5 09 be
       -0.618135 0.29562062 0.18686268 -0.13448262
000010 93 ea 14 be 52 0d 11 3e fc 72 f5 3d 77 fd 0e 3d
       -0.14542608 0.14165238 0.11984822 0.03490969
000020 c7 bb 01 be cd 0b 87 bc 6c 87 0b be 76 43 b0 3d
       -0.12669288 -0.01648512 -0.13625878 0.08606617
000030 a8 73 dc bc 13 21 26 be d2 0c 0a 3e 9d 1a b2 bd
       -0.026910618 -0.16223554 0.13481453 -0.08696482
000040 32 da 61 3d 92 20 82 bd 04 fa 88 bd 2a 72 86 ba
       0.055139728 -0.063538685 -0.06688312 -0.0010257412
000050 26 94 4d 3b fb 30 24 3d 23 e3 3a 3e f6 f1 24 3b
       0.003136882 0.040085774 0.18250708 0.0025168634
000060 f4 28 04 bc 47 c5 20 bd 11 22 34 bd a3 58 dd 3c
       -0.008066405 -0.03925064 -0.0439778 0.027019804
000070 4f 13 80 bd 9d 86 8b bc b0 be b3 3d 77 7d 2d 3a
       -0.06253683 -0.017031962 0.08776605 0.0006618122
000080 83 86 e5 3d c5 ca 2d 3e fc 47 42 be a4 b3 09 3e
       0.11207297 0.16971882 -0.18972772 0.13447434
000090 a0 6a 5c bc 46 c2 3c bd 77 94 3b be 7b 06 78 be
       -0.013453156 -0.04608371 -0.18318354 -0.24221222
0000a0 4c 94 f6 3c 97 30 35 be 1e 45 15 3d 64 dc 31 bd
       0.03010001 -0.17694317 0.03644287 -0.04342307
0000b0 79 77 4b 3e 6a 00 ee bc f2 e8 17 bd 4b ef a2 3d
       0.19869794 -0.029052932 -0.03708739 0.07955798
0000c0 72 d2 01 3c 8a b9 ed 3d 4b b0 a0 3d c8 ea 3b 3e
       0.007923709 0.116076544 0.07846125 0.1835128
0000d0 75 13 0a be 56 e4 15 be ce 54 05 3e a2 b2 b1 bd
       -0.13483985 -0.14637884 0.13020632 -0.0867665
0000e0 fd 59 a0 3d c4 a8 4e bd 92 3c 3d 3c 5b 67 9a 3d
       0.07829664 -0.050453916 0.011550086 0.07539245
0000f0 a9 76 95 3d e2 03 02 3c e3 ef ea bc 70 61 03 be
       0.07298023 0.007935496 -0.02867884 -0.12830138
000100 c6 db 6d be 84 47 9c 3d 02 99 1a bd 27 d6 ff bd
       -0.23228368 0.07630828 -0.037743576 -0.12492018
000110 89 db c1 bd 0b 6b 88 3d dc 6e 1b be 54 d8 33 bd
       -0.09465701 0.06661042 -0.15179008 -0.04390748
000120 d8 b4 87 be bd 04 1f 3e 39 28 44 be 96 6f 9b 3d
       -0.2650516 0.15529151 -0.19155969 0.07589643
000130 8a 40 1d bf d7 1e 32 bd 75 94 c3 3d d4 9e 67 b9
       -0.61426604 -0.043486442 0.095498 -0.00022089045
000140 7c f4 40 3e 59 47 c7 3b 97 5d 2d be ad e4 09 bd
       0.18843263 0.0060815034 -0.16930233 -0.033665348
000150 a7 ea e2 3d bd 02 11 be 19 08 24 3c d2 45 9a bc
       0.11079913 -0.14161201 0.010011696 -0.018832121
000160 db 16 f2 bc 5e c7 5a 3e 2a d6 28 bd d7 ac d0 3d
       -0.029551914 0.21365115 -0.041219868 0.101892166
000170 c0 14 e2 bb e5 4d 24 be 52 af 1e 3e ed 1f ee be
       -0.0068994462 -0.1604534 0.15496567 -0.46508732
000180 8c 00 60 3f 99 bc 13 3e 1c 52 1e bd 68 e4 1f 3d
       0.87500834 0.14427413 -0.038652524 0.039036185
000190 13 70 89 3e 1c ff 3c 3e bc 91 f2 bd 3f 9f bb bc
       0.26843318 0.18456692 -0.11844203 -0.022903083
0001a0 61 6d 8e bd 6c 51 36 be 07 f9 b4 3d 7d bc 03 be
       -0.06954456 -0.17804497 0.08836561 -0.12864871
0001b0 9d 5b a9 bd 79 dd 8a bc 0d fa 2e bc 31 f0 fd bd
       -0.08269427 -0.01695131 -0.010679734 -0.123993285
0001c0 01 b8 ac bd 31 d8 1f be 19 81 78 3e d6 e0 49 3e
       -0.084335335 -0.15609814 0.24267997 0.19714674
0001d0 24 bb fe bd e4 a9 55 be 78 90 c9 3d e6 70 38 be
       -0.12438038 -0.2086559 0.09842008 -0.18011817
0001e0 aa 71 3f be 14 39 de 3d 22 3e c6 bd 35 bf bb bd
       -0.18695703 0.108507305 -0.0967982 -0.09167329
0001f0 0d 76 37 bd bc c0 17 3e d2 4c 15 3e 07 00 dd bc
       -0.044790316 0.14819616 0.14580086 -0.026977552
000200 9f a2 4c bc 27 b2 94 bd ae fe 87 bd 19 b8 2d be
       -0.012489944 -0.07260542 -0.06640373 -0.16964759
000210 35 a6 17 3d 8b c1 b5 be 9b 7f 24 3e 88 76 f0 bd
       0.03702374 -0.35499224 0.16064303 -0.11741358
000220 94 57 e8 bd 12 0e 76 3d b7 63 5b be 2e e4 09 3e
       -0.11344829 0.060072012 -0.21424757 0.1346595
000230 e9 eb 8a 3d 4f 90 db bc 00 81 49 3e 6f b3 73 bd
       0.067832775 -0.02680221 0.19678116 -0.059497293
000240 0a 56 0f bd c2 be e4 3d 09 85 c1 3d 16 22 ff 3c
       -0.034994163 0.11169197 0.094492026 0.031144183
000250 94 be b7 3d cd 03 00 3e 28 15 c3 bd 60 50 07 be
       0.08971897 0.1250145 -0.095255196 -0.13214254
000260 ee d2 a9 3c 60 f5 45 bc 20 9a 84 3e ad 16 3f 3e
       0.020730462 -0.012082428 0.25898838 0.18660994
000270 4e f9 43 3e a0 21 28 be 8f 13 64 bb 96 54 20 bd
       0.19138071 -0.16419077 -0.0034801697 -0.039143167
000280 ef dd 86 bd ee ab f4 3d 08 74 13 bc 9d 5f 3c be
       -0.06585299 0.119468555 -0.008999832 -0.18395849
000290 a1 6d 57 bd b2 ca 75 3d 19 8c 83 3c ca 0c 13 be
       -0.052594785 0.06000776 0.016058015 -0.14360347
0002a0 38 2c 8c bd 07 2f 66 3b c8 6d c3 bd f2 22 26 bd
       -0.068443716 0.0035123245 -0.095424235 -0.04056067
0002b0 46 55 10 3c 73 98 2f 3d 49 70 16 be aa a1 ef bd
       0.008809393 0.042869996 -0.14691271 -0.11700757
0002c0 c1 8e ed 3c ba 7f 15 bd 4f d6 69 bd 20 92 bb 3d
       0.028998734 -0.036498763 -0.057089146 0.091587305
0002d0 29 c8 10 3d 2e 70 67 bd 7f e0 56 bd 5d 12 3b 3e
       0.035347138 -0.056503467 -0.05246019 0.18268724
0002e0 d1 54 67 bd 80 1e 63 3d d0 87 ad 3d 19 a0 70 bd
       -0.05647737 0.05544901 0.0847317 -0.05874643
0002f0 81 d6 9c 3d 97 6b 79 bb 59 6b c6 3d b3 da e1 bd
       0.07658101 -0.0038058513 0.09688444 -0.11028042
000300 0e eb a6 bc 0c b5 6a 3d 37 a9 f2 3d 65 80 a0 bd
       -0.020375755 0.057301566 0.118486814 -0.07836989
000310 f4 d6 2f 3e bd 69 48 bd 83 05 1c 3d a6 f0 7d bd
       0.17171842 -0.048928965 0.038091194 -0.06199708
000320 dc fe 28 3e b7 0f ab bd f7 34 76 bd f3 e3 21 be
       0.16503471 -0.08352607 -0.060109105 -0.15809612
000330 3f b7 18 be c8 d9 02 3d d6 d8 4e 3d 5d 94 20 be
       -0.14913653 0.031945974 0.05049976 -0.15681596
000340 b1 95 2f 3e 5e ee 96 bc 22 42 ee 3a e6 2a 55 3e
       0.17146946 -0.01842421 0.0018177668 0.20817146
000350 8c 70 5b bd c6 d1 3c bd 4b 13 e8 bd 4e 1b c5 bd
       -0.05357413 -0.046098493 -0.11331805 -0.096243486
000360 33 96 3f 3b 32 59 ae 3d 00 00 50 32 95 ef e6 bd
       0.0029233813 0.085131064 1.21071935e-08 -0.112761654
000370 68 88 ad 3d 97 6b 17 3c e4 56 bd 3c 37 13 20 3e
       0.08473283 0.00924196 0.023112722 0.1563233
000380 1f b1 c6 3d cb 8f df bd 81 1f c3 bd 77 ca 9b 3d
       0.09701752 -0.10916098 -0.09527493 0.076069765
000390 5e 67 98 bb 02 fd 0d be c6 d4 19 3e 73 ee 21 be
       -0.004650994 -0.13866046 0.15022573 -0.15813617
0003a0 ce 37 25 be 24 6d 32 be a0 4e 62 3e 89 f2 24 3c
       -0.16134569 -0.17424446 0.22100306 0.0100675905
0003b0 0f bc 9e 3d 80 ad 37 3e ee 06 1d be 87 5a 49 be
       0.07750713 0.17937279 -0.15334675 -0.1966344
0003c0 84 15 8a 3c 98 f1 a6 bd 8a 2c 49 3e 18 d7 e3 3d
       0.016855963 -0.08151549 0.19645897 0.1112501
0003d0 85 45 e2 3d 6f 89 e3 3c 37 9c 34 be ef 89 e5 3e
       0.11048416 0.027775494 -0.17637716 0.44831797
0003e0 05 69 5f 3f de d2 06 be 5f 8d 9a bd bc b9 95 3b
       0.8726962 -0.13166377 -0.07546496 0.0045692604
0003f0 da 08 95 3c f6 c0 21 bb 8b 1c 33 3d 3a 74 d8 bd
       0.018192697 -0.0024681664 0.043728393 -0.105690435

transformer.encoder.bias f4 [128]
000000 13 60 1b bf b2 54 3b bc ae 61 66 40 b2 c0 17 3c
       -0.6069347 -0.011433767 3.599712 0.009262251
000010 c2 3f 27 3f 42 22 21 bf 42 92 61 c0 31 c7 41 c0
       0.6533166 -0.629429 -3.5245519 -3.0277827
000020 3b 84 d6 3b 0c f3 a9 bb 7b 57 77 40 2a 1a 62 3c
       0.006546525 -0.005186444 3.8647144 0.013800183
000030 9d 0e 61 40 55 2b 95 3e a7 3e 5d 40 c4 84 f9 3b
       3.516517 0.29134622 3.456949 0.007614704
000040 d9 cd 56 bc 24 f3 57 c0 d7 52 25 bc b7 eb 01 3b
       -0.013110601 -3.3742151 -0.010090551 0.0019824335
000050 8c 13 53 40 5d 19 fd bd 7c 67 5c bb cf 05 6e bb
       3.298068 -0.12358353 -0.0033631017 -0.003631938
000060 14 8f 75 c0 a9 03 0a 3a fc 34 29 39 d7 a0 a2 bc
       -3.8368578 0.00052648276 0.00016136834 -0.019852085
000070 84 db 14 3e 13 3b ac 3b 1b 5f 8a 3b 74 95 28 40
       0.14536864 0.0052560656 0.0042227632 2.634122
000080 60 ae 61 bc c4 16 9d 3f 28 d1 94 3e b7 13 8d 3f
       -0.013774484 1.2272573 0.29065824 1.1021641
000090 60 b6 e8 bb ac 73 1b 3f 59 26 8c bf a4 6f aa bc
       -0.007101819 0.60723376 -1.0949203 -0.020805188
0000a0 01 e0 12 3a 17 a7 ac 3e 80 ab b4 ba 95 73 2e 3c
       0.0005602837 0.3372123 -0.0013784021 0.010647674
0000b0 5e 81 be b8 2a 48 59 bc 4f 01 92 3c ad b1 59 40
       -9.0840025e-05 -0.013261834 0.01782289 3.4014695
0000c0 ea cc 57 c0 12 9d d1 bf e7 6e ad bc 41 cb d2 bb
       -3.371882 -1.6376059 -0.021171046 -0.006432921
0000d0 17 e9 bf be f1 fe 0d 3c 8e af 57 40 47 ef 42 40
       -0.3748252 0.00866674 3.37009 3.0458543
0000e0 cf 5e e4 bc 2e 20 47 3f 52 94 98 3c e7 58 99 3c
       -0.02787724 0.7778348 0.018625412 0.01871915
0000f0 da 30 34 c0 78 ca b2 3f 18 14 b8 bd 1e 8c 0c 40
       -2.8154817 1.3968039 -0.089882076 2.196052
000100 48 bb 12 40 ba ff 1e 40 1b f7 92 3f 03 b7 02 3d
       2.2926807 2.4843583 1.1481661 0.031912815
000110 f3 07 0b 3c 67 29 5f 40 9d f5 5b c0 fe 81 0f c0
       0.008485782 3.486902 -3.436866 -2.242309
000120 ba 39 fb 3a 59 a7 62 40 fb 02 17 bb 03 22 ba bb
       0.0019166984 3.541464 -0.0023042548 -0.005680324
000130 76 e5 74 bb 69 16 58 3f b6 f1 cd 3f c8 cb ca 3c
       -0.0037368215 0.84409195 1.6089389 0.024755374
000140 28 2c c3 3c dc 57 5f 40 ee 82 50 bc fa 84 65 bb
       0.023824766 3.4897375 -0.012726529 -0.0035021887
000150 4c 54 86 bb 4c bc 72 40 f2 9e 3d c0 eb 5b 0f bb
       -0.0040994044 3.7927427 -2.9628263 -0.0021874856
000160 6d 42 53 3b 94 bd 75 bb 07 6d e4 3f ad b2 4a ba
       0.0032235638 -0.003749703 1.7845773 -0.0007732313
000170 d8 9d ed 3c 8d 0d bd 3e e1 01 61 c0 b1 93 06 3b
       0.02900593 0.369244 -3.5157397 0.0020534808
000180 9d 90 9b bb 29 48 a9 be ce d9 25 bc 55 62 f6 bb
       -0.004747464 -0.33062866 -0.010122729 -0.0075190463
000190 7b fd 6c 40 9f 12 fe 3b 65 2a 77 3a aa 46 57 c0
       3.7029712 0.0077536847 0.00094286195 -3.363688
0001a0 7b 30 67 c0 33 b2 2f bc 19 5d 59 40 32 0a fc be
       -3.612334 -0.010723638 3.3963072 -0.49226528
0001b0 2f b0 b8 3a 3d 25 10 c0 4d 6e 6c bf 81 b9 4c bb
       0.0014090593 -2.2522728 -0.92355806 -0.0031238499
0001c0 b2 69 3a bf 8e 31 15 3d 2b 00 f4 3b f9 02 ff bf
       -0.7281753 0.036424212 0.007446309 -1.9922782
0001d0 bc 43 b5 3c 29 41 de bb a4 d3 c7 3e c2 6e 1f c0
       0.022127025 -0.00678267 0.39028656 -2.4911351
0001e0 be d5 8a bf 2a 7a 05 bb c9 66 39 c0 31 45 59 bc
       -1.0846479 -0.0020367005 -2.8968985 -0.013261125
0001f0 52 b4 12 c0 14 12 05 3f 7d d2 47 bb f4 86 e7 bb
       -2.2922559 0.5198071 -0.003049045 -0.007065648

transformer.transformer.layers.0.self_attn.in_proj_weight f4 [384, 128]
000000 6a 9c af bd 46 af 6a 3f c2 5d f0 be 33 70 88 3e
       -0.085747555 0.91673696 -0.46946532 0.266481
000010 54 d2 45 bd 1f 05 7a be 94 40 a1 3e 56 85 3c bd
       -0.048296288 -0.24416016 0.31494582 -0.046025597
000020 63 53 1e bf a9 bb a5 be db ee ba be 53 db 08 bf
       -0.6184599 -0.32369736 -0.36510357 -0.5345966
000030 7e 10 03 bf ab 54 fd 3d 1c 66 04 be 0f 3a 8e be
       -0.5119704 0.12369665 -0.12929577 -0.2777867
000040 54 e0 fc bc 32 ae 8f 3d ae e0 69 bf fd 7b 61 bf
       -0.030868687 0.07015647 -0.9135846 -0.88079816
000050 b0 fa 81 3d e8 78 67 3e a0 81 22 bf 7e 99 3e bf
       0.06346643 0.22604716 -0.6347904 -0.7445296
000060 3e 9b 41 3e 3b 7a de bd fb 3f 9f 3f df 79 f3 3e
       0.18906876 -0.10863157 1.24414 0.47553918
000070 5c 47 85 3e c3 2e 8d bf 5d 08 df 3e 67 2a a5 3c
       0.26031005 -1.1029896 0.43561068 0.02016182
000080 78 1b 77 3e 0b 61 e5 bd 14 48 07 bc 2a ea 3e be
       0.24131572 -0.1120015 -0.008256931 -0.18644014
000090 1a 41 aa 3d ff d8 8c bc e7 b1 54 be 1e 78 9d 3e
       0.083131984 -0.017193316 -0.2077099 0.30755705
0000a0 6f 30 16 3e d0 e0 c7 bd 4e 6a fb 3e 09 8b f7 3e
       0.14666913 -0.097596765 0.49104542 0.48348263
0000b0 a4 56 eb 3e 61 7f 58 bf 49 8a 01 3f 55 6d ae be
       0.4596454 -0.84569365 0.5060163 -0.3406779
0000c0 d9 5e 19 3e 7f 84 d4 bd 31 ab a9 3f fb 1d c9 3d
       0.14977588 -0.10376834 1.3255368 0.098201714
0000d0 a3 99 cc 3e 12 b6 6c be 56 a3 ad be 65 1d de bc
       0.39960966 -0.2311633 -0.33913678 -0.027113626
0000e0 7e 96 bb be 0a 3b af be 69 68 83 bf bc 10 51 3d
       -0.36638254 -0.3422473 -1.0266238 0.05104135
0000f0 99 04 17 3d 2b 1a 07 be ce f9 a7 be d7 02 9a be
       0.03686962 -0.13193576 -0.32807773 -0.30080292
000100 ec d4 0f be ce 19 86 3e a7 b2 ca bd 17 0a aa 3e
       -0.14046067 0.26191562 -0.098973565 0.33210823
000110 9b 3a 06 3f 93 61 0a be ab 5f f4 3a e4 3d 3f bc
       0.52433175 -0.13513784 0.0018644234 -0.011672471
000120 01 b1 b4 3e 29 48 ea bc 8c c8 f9 be 7b 44 3a 3f
       0.35291293 -0.028598862 -0.48785818 0.7276074
000130 0a 8c 71 3e 8c b2 99 3e 70 33 32 3d a6 a2 7e 3f
       0.23588577 0.30019033 0.043506086 0.9946693
000140 23 a2 46 be 03 35 e5 be b9 2e f6 be da 85 4d be
       -0.19397788 -0.44767007 -0.48082522 -0.20070592
000150 b7 95 ee 3e ce 9d 20 be 00 13 9b bd 0b 17 56 3f
       0.46598598 -0.15685198 -0.07571983 0.8362891
000160 cc 34 8b bc 1b aa 31 3f 1f 91 bf bd ff 28 81 3f
       -0.016992949 0.69400185 -0.093538515 1.0090636
000170 ab 3b 1d be ee 36 38 be da 44 02 3f 27 4d 40 3f
       -0.15354793 -0.17989704 0.5088631 0.75117725
000180 21 60 5d 3f e2 07 87 3e 5e cf b4 bd be ff b3 3e
       0.86474806 0.26373202 -0.08828615 0.35156053
000190 04 5b dc be 98 cf 5f 3f e2 67 10 bf 34 84 8c 3e
       -0.4303819 0.8742614 -0.5640851 0.27444613
0001a0 33 e5 0e 3e 7a 4c d8 bf 6c 9a cd bd 88 88 55 be
       0.1395462 -1.6898339 -0.10039219 -0.20852864
0001b0 2a 25 39 bf e4 39 6e 3e 60 fb c1 3e 04 b7 fb 3e
       -0.7232233 0.23264271 0.37887096 0.49163067
0001c0 05 90 7c 3e 41 e1 97 3d eb 6a c0 3d 79 0c 93 3c
       0.24664314 0.07416011 0.09395393 0.017950283
0001d0 24 a0 6a 3e c4 3e 39 3f cc 82 ef 3d 1f 17 94 3d
       0.22912651 0.723614 0.116948694 0.072309725
0001e0 9a dd 87 bd 3a 3c aa 3e a5 c0 17 3e 4f 58 69 bf
       -0.06634064 0.33249074 0.14819582 -0.91150373
0001f0 6d 12 5a be 5b 01 5a 3d 39 e4 55 be d2 79 e3 be
       -0.21296091 0.05322395 -0.20887841 -0.4442888
000200 fc f1 ab be f1 c5 a5 3d 34 fe 33 be 98 37 1d 3c
       -0.33583057 0.08094395 -0.1757744 0.009595774
000210 62 c1 1f be 65 0e 01 3e af 45 42 bd 38 9b 33 be
       -0.15601113 0.12603147 -0.047429737 -0.1753968
000220 d3 a1 91 3e 9d 46 96 bf 3e 6e b2 3e c4 00 7c bf
       0.28443775 -1.17403 0.34849733 -0.9843867
000230 dc 29 06 be ba f1 14 bc ab 22 1b 3c 36 a7 d2 3d
       -0.13101906 -0.009090835 0.009468715 0.10285799
000240 17 85 a8 3e a0 6e 5a 3e 71 1c 19 3e be 73 6b 3d
       0.3291404 0.21331263 0.14952256 0.057483427
000250 35 ae 44 3e f7 fb 2a 3e c3 e3 18 3e de e3 48 bd
       0.1920708 0.1669768 0.14930634 -0.049045436
000260 d7 02 73 bd ca dc 80 3f b1 d0 85 3e 4e a2 30 3e
       -0.05932888 1.006738 0.2613578 0.17249414
000270 8c ae 7c 3e be 0a be 3e 8e 48 bc 3f 8b 62 cd 3d
       0.2467596 0.3711757 1.4709642 0.10028561
000280 aa 07 08 bd 7b c4 b6 bc a9 7b f3 3d 5e d6 28 3e
       -0.033210434 -0.022310486 0.11888821 0.16488025
000290 b0 a3 51 bf 51 08 e5 3d 6f 64 83 be c8 5e 6f be
       -0.8189039 0.11183227 -0.25662562 -0.23376
0002a0 1c 13 cb 3e 3d fd 8e be e1 a5 52 3d 0c 6a 96 3c
       0.39663017 -0.2792758 0.051427726 0.018361114
0002b0 0a d4 ba bd c0 77 a7 bd 35 b1 80 3e 50 15 6e ba
       -0.091224745 -0.081771374 0.25135198 -0.00090821553
0002c0 2d 2c 38 3e 97 5d 00 bd 91 9b d6 3d 3c f2 5f bc
       0.17985602 -0.031339254 0.10478891 -0.013668593
0002d0 65 9a 03 3e d6 0d f7 bd 22 ee ee 3d ca 04 eb 3c
       0.12851866 -0.12063186 0.11666514 0.028688807
0002e0 54 ec 2a 3f 7a fa 6e be c7 39 dc bd 9f 6b 42 3f
       0.6676686 -0.23337737 -0.10753208 0.75945467
0002f0 0c e5 a6 3e 64 c7 9c be fa 42 64 bd 0e f4 e7 bd
       0.32596624 -0.30620873 -0.055727936 -0.113258466
000300 f2 8b 89 3d 78 af 9c be 25 70 66 be cb 62 bb 3e
       0.067161456 -0.30602622 -0.22503717 0.3659881
000310 bc b8 05 bf c3 1f 6a 3e f2 d9 dc bd d7 fa 59 be
       -0.5223501 0.22863679 -0.10783757 -0.21287094
000320 9f 29 9a be ec f3 9b 3e 7e 40 3e bf bf e9 9f 3e
       -0.3010988 0.30459535 -0.7431716 0.31233022
000330 5b 3f ea 3d 5d 32 95 3d b1 72 45 3d f7 d3 3b 3f
       0.11437865 0.07284997 0.04820508 0.7337031
000340 34 c4 6a bd 29 52 a2 3d ac a9 dc 3e 10 69 49 3f
       -0.05731602 0.07925827 0.430982 0.7867594
000350 94 e6 38 3e af a4 a9 3e ab 97 86 3e da 11 2f 3e
       0.18056709 0.33133456 0.26287588 0.17096654
000360 bd cb aa be bd 53 69 3f 14 9c 95 be ad 32 53 3f
       -0.33358565 0.911434 -0.2922064 0.824992
000370 e0 89 8e bd f2 e6 c2 bd cd fa 3c 3d b2 1e d3 bd
       -0.06959891 -0.095167056 0.04613762 -0.10308589
000380 c2 46 38 3e 6c 83 38 3e 14 24 07 bf 85 79 f5 3e
       0.17995742 0.18018883 -0.52789426 0.47944275
000390 91 8e 8d 3d bd 91 62 be b3 32 fb be 4e 82 6c 3e
       0.06911958 -0.22125907 -0.49062118 0.23096582
0003a0 fb ca af be 08 f5 89 bf da 00 26 3e 16 dd 54 be
       -0.3433455 -1.0777903 0.16211262 -0.20787463
0003b0 6d cc 98 3e 7b 8c 7e 3e 38 54 20 3e 71 fb 12 3f
       0.29843464 0.24858277 0.15657127 0.5741492
0003c0 1b 12 36 bd ad ff 62 be 01 ab ca 3e 03 99 19 be
       -0.04445086 -0.22167845 0.3958359 -0.14999776
0003d0 bf e7 3f be 86 78 af 3e 87 fe 90 3d 75 18 9d 3e
       -0.18740748 0.3427164 0.07079797 0.30682722
0003e0 c4 dc 93 bd 4d 30 28 3e b6 84 a6 3e c1 bb d1 be
       -0.07219842 0.16424675 0.32523125 -0.40963557
0003f0 67 f1 0d bd 7f 4f 88 3d 56 24 54 be b6 c1 c6 bd
       -0.034654047 0.06655788 -0.20716986 -0.09704916

transformer.transformer.layers.0.self_attn.in_proj_bias f4 [384]
000000 ef 5c ad be fc 9c 14 3e 95 82 3a bd fa df df bd
       -0.33859965 0.1451301 -0.04553469 -0.10931392
000010 a9 ab 1b 3e 2f 2e 08 be da 34 10 be aa 70 40 be
       0.15202202 -0.13298868 -0.14082661 -0.18792978
000020 37 59 df ba 6a dd f7 bd be 10 12 3e 87 12 1c 3e
       -0.0017040138 -0.12102778 0.14264199 0.15241443
000030 df 00 0f 3e a7 98 f5 3d 49 a9 90 3d 8c c1 c3 3d
       0.13965176 0.11992007 0.070635386 0.095584005
000040 9a 87 3a be 8d 54 5c be 6f 4e bc bd 41 19 ea 3d
       -0.1821579 -0.21516629 -0.091946475 0.11430598
000050 87 9a 29 bc b6 17 63 3e 2b bc 5d be 04 8b 70 3e
       -0.010351784 0.22177014 -0.21653812 0.2349053
000060 40 97 49 be a2 e2 67 3d 6c a5 35 3d f1 a1 e4 3d
       -0.19686604 0.05661262 0.04434721 0.111637
000070 ce 3a 2a 3d 86 22 60 be 7b 64 ec 3d 73 6d 49 3d
       0.041559987 -0.2188817 0.11542603 0.049176645
000080 a9 78 a0 be ac 7f 9c 3d b1 42 45 3c f9 16 b5 be
       -0.31342056 0.07641539 0.012039826 -0.3536909
000090 35 e8 a6 be ea 26 ac 3e c6 00 a0 3e d9 66 31 bf
       -0.32599035 0.3362344 0.3125059 -0.6929756
0000a0 6f f7 87 be cf 4f bb be 5d e6 d4 3e c7 c9 bf 3e
       -0.26555964 -0.36584327 0.41582003 0.3745863
0000b0 2e 0c 36 3e 60 38 f0 be 79 a6 d5 3e 56 60 a0 be
       0.17778084 -0.4691801 0.4172857 -0.31323498
0000c0 b8 03 b1 be a4 62 26 be 3b 17 df be 79 25 52 be
       -0.3457315 -0.16248566 -0.4357241 -0.20522107
0000d0 ab 81 9b be e4 0d 65 3d 6a bd 0d bf 1a a7 8f be
       -0.30372366 0.05592145 -0.5536715 -0.28057176
0000e0 62 74 17 bc 01 a8 39 3e d6 e9 c3 3e bc e7 c8 be
       -0.009244056 0.18130495 0.3826434 -0.392393
0000f0 ca 33 90 3e fa 05 c7 bc cd 99 a4 be 85 e9 01 bd
       0.28164512 -0.024294842 -0.3214859 -0.031716842
000100 e8 78 ec 3e 20 a9 49 3e 3a a6 32 3e d6 b9 91 be
       0.46185994 0.19693422 0.17446223 -0.28462094
000110 a9 66 0e 3d 4e eb e6 3d 3e 7d 82 be 2e 29 b2 3c
       0.034765873 0.112753496 -0.25486177 0.021748152
000120 39 2e c3 3e f2 2a 2a be 45 81 8c 3e 6a cc 78 be
       0.38121203 -0.16617945 0.27442375 -0.24296728
000130 a4 99 cd 3d 1f c5 85 be 35 23 db be 1b 64 7c 3e
       0.1003907 -0.26126954 -0.42800298 0.24647562
000140 a5 a4 9c bd 1f 90 49 be 2b 19 9f 3e 30 b3 bb be
       -0.07648591 -0.19683884 0.3107389 -0.36660147
000150 ef ba 96 be 7b aa 03 3d d5 32 68 be d1 bb 06 3e
       -0.29439494 0.032145005 -0.22675641 0.13157584
000160 fd 80 94 3a 03 60 aa be 27 99 17 3e 2b 20 a0 3d
       0.0011329945 -0.33276376 0.14804517 0.078186356
000170 a6 07 9e be 1e 3a 6e be c9 ab 7b 3e 4b c0 37 bd
       -0.3086521 -0.23264357 0.2457725 -0.04486112
000180 9e c8 af 3e 29 82 e4 3d a1 6b 7e bd 09 ed af bc
       0.34332746 0.111576386 -0.06211436 -0.021475332
000190 ab a7 ca bd 6d 00 a1 3d f9 16 82 3e a7 57 ab be
       -0.098952614 0.07861409 0.25408152 -0.3346531
0001a0 99 65 92 3d 4f fb a7 3e 56 ef d4 bd 36 52 74 bd
       0.071482845 0.3280892 -0.10397212 -0.059648715
0001b0 be a6 00 3e cb be ac be 17 e3 94 bd 26 ed cf be
       0.12563607 -0.33739313 -0.072698765 -0.40610617
0001c0 a7 bd 68 3e 84 04 b8 be 74 d0 ab 3e 98 df 03 3e
       0.22728597 -0.35940945 0.33557475 0.12878263
0001d0 5c 21 bf be 13 c8 8b bc 10 52 53 be 3a 65 56 3e
       -0.3733014 -0.017063176 -0.20636773 0.20937052
0001e0 a0 ab 11 be 07 fc 14 3e bb 37 c7 3a 30 ee 9a 3e
       -0.14225626 0.14549266 0.0015199104 0.30259848
0001f0 e4 b7 11 3a 0c ef 5c bd 26 49 f9 bd 43 81 1f be
       0.0005558713 -0.05393891 -0.12172155 -0.15576653
000200 5f c8 11 3f 8c d6 cb 3e 9b 5c 85 be 89 3f 36 bf
       0.5694637 0.39812124 -0.26047215 -0.71190697
000210 5c 95 43 3f e3 68 84 3e b8 90 15 be 7a 06 c9 3b
       0.7639978 0.25861272 -0.14605987 0.0061348053
000220 3a d4 66 be bc 01 5e be d9 a0 2d 3d 7c 94 59 be
       -0.22541896 -0.21680349 0.042389724 -0.21248049
000230 c0 cc 6d bd 0b 17 8f be 4f e2 4f be 3b f4 5e 3f
       -0.058056593 -0.27947268 -0.20301174 0.87091416
000240 15 d2 81 3e 91 68 2b bf 13 b3 66 bd 46 46 06 3e
       0.25355592 -0.6695643 -0.056323122 0.13112745
000250 66 78 a3 3e 82 17 8e be 2e 72 36 3e b6 60 b1 be
       0.31927794 -0.2775231 0.17816994 -0.34644097
000260 58 61 be 3e 7c 36 59 3e ef ad 3c 3e b8 9a 80 3e
       0.37183642 0.2121219 0.18425725 0.2511804
000270 65 38 98 3e 90 32 98 3e 01 d8 9a be b1 f1 8f 3e
       0.29730526 0.29726076 -0.30242923 0.28114083
000280 6e fc 3b be 54 27 10 3e 0b be 09 be b6 b3 0f be
       -0.18358013 0.14077502 -0.13451402 -0.14033398
000290 dd d6 45 be fe b3 1f 3e cb 95 bb 3d 67 07 37 be
       -0.19320245 0.15596005 0.0915943 -0.17873918
0002a0 04 66 34 be 50 22 02 be d0 5f 40 3e 83 af 25 3e
       -0.17617041 -0.12708402 0.1878655 0.16180234
0002b0 f3 89 70 3e 19 4f 48 be 90 ae fd 3d 59 c1 2f be
       0.23490123 -0.19561423 0.12386811 -0.171636
0002c0 ad 5b 18 be a1 b2 33 be 5a 7e 0f be a9 68 4b 3e
       -0.14878722 -0.1754861 -0.14013043 0.19864143
0002d0 51 79 d9 bd cb 96 2e be 3b 02 4d be bf 74 18 be
       -0.106188424 -0.1704971 -0.20020382 -0.14888285
0002e0 be f0 50 3e d7 e8 21 3e 60 5c 65 3e 06 98 b4 bd
       0.20404336 0.15811478 0.2239852 -0.08818059
0002f0 fb 05 ff 3d 9f 28 ac bd 28 b7 13 be e9 45 a5 3d
       0.124523126 -0.08406185 -0.14425337 0.08069975
000300 5b 5a 32 3c f7 3b 05 be 65 74 78 bc 3c a0 8a bd
       0.0108858 -0.13011156 -0.015164469 -0.067688435
000310 89 1f 03 bd 1a 20 b4 3d 6f 28 d5 3d f7 ad e3 3d
       -0.032012496 0.087951854 0.10408103 0.111171655
000320 95 68 c1 3c 0c 48 12 3e 40 0e c8 3c 0c 12 6c 3d
       0.023609439 0.14285296 0.024420857 0.0576344
000330 a7 af e0 bd 5b 37 60 ba 87 c6 30 bd 7c 55 76 3c
       -0.10971003 -0.00085531705 -0.04315808 0.0150350295
000340 3f ac 01 bd 0e 76 19 3d c0 41 ae bd eb 5d af bd
       -0.031658407 0.0374661 -0.085086346 -0.08562835
000350 b8 aa e3 3c 0a 48 19 bc 48 41 1e 3e d3 b8 97 3d
       0.027791366 -0.009355554 0.1545459 0.07408299
000360 9e 8a f3 3d d5 85 0a 3e 93 eb a8 3d 6d 7e c9 3c
       0.118916735 0.13527615 0.08248057 0.024596417
000370 bb 09 34 3d 4d 5b 93 bd c5 d3 63 bc 7e b1 a2 bc
       0.043954592 -0.071951486 -0.01390547 -0.019860025
000380 c2 9d 07 3d a7 e6 97 3b e9 0b bb bd 15 e5 c5 3c
       0.033109434 0.00463565 -0.09133131 0.024157086
000390 98 2e 35 3e d4 96 ee bd 59 06 4c bd 77 12 1c bd
       0.17693555 -0.11649862 -0.04981074 -0.038103547
0003a0 87 73 00 be 13 6a 98 3d 64 fe 22 be c5 6b a5 bd
       -0.1254407 0.07442107 -0.15917355 -0.08077196
0003b0 90 89 3d bc 88 b4 b6 3d 8d be 25 be 36 54 ce 3d
       -0.011568442 0.08921152 -0.1618597 0.10074656
0003c0 32 af 91 bd 33 35 8e bd c4 58 e7 bc 7a 52 45 be
       -0.07113494 -0.06943741 -0.028240569 -0.19269744
0003d0 05 9d 77 bd 18 28 0a be 9d 04 5f bd 17 f6 77 be
       -0.06045248 -0.13491857 -0.05444776 -0.2421497
0003e0 8f 10 ae 3b a6 86 91 bd 7e 96 6d be 42 7c 98 bd
       0.0053120325 -0.0710576 -0.2320194 -0.07445575
0003f0 93 86 50 bd 5e d3 00 3e 86 30 3d bb 68 1b 0f 3e
       -0.05090959 0.1258063 -0.0028868034 0.13975298
